<?xml version="1.0" ?>
<net name="action-recognition-0001-decoder" version="10">
	<layers>
		<layer id="0" name="0" type="Parameter" version="opset1">
			<data element_type="f32" shape="1,16,512"/>
			<output>
				<port id="0" names="0" precision="FP32">
					<dim>1</dim>
					<dim>16</dim>
					<dim>512</dim>
				</port>
			</output>
		</layer>
		<layer id="1" name="249911/EltwiseUnsqueeze7240_const" type="Const" version="opset1">
			<data element_type="f32" offset="0" shape="1,16,512" size="32768"/>
			<output>
				<port id="0" names="249" precision="FP32">
					<dim>1</dim>
					<dim>16</dim>
					<dim>512</dim>
				</port>
			</output>
		</layer>
		<layer id="2" name="250" type="Add" version="opset1">
			<data auto_broadcast="numpy"/>
			<input>
				<port id="0">
					<dim>1</dim>
					<dim>16</dim>
					<dim>512</dim>
				</port>
				<port id="1">
					<dim>1</dim>
					<dim>16</dim>
					<dim>512</dim>
				</port>
			</input>
			<output>
				<port id="2" names="250" precision="FP32">
					<dim>1</dim>
					<dim>16</dim>
					<dim>512</dim>
				</port>
			</output>
		</layer>
		<layer id="3" name="263/Output_0/Data__const" type="Const" version="opset1">
			<data element_type="i64" offset="32768" shape="3" size="24"/>
			<output>
				<port id="0" names="263" precision="I64">
					<dim>3</dim>
				</port>
			</output>
		</layer>
		<layer id="4" name="264" type="Tile" version="opset1">
			<input>
				<port id="0">
					<dim>1</dim>
					<dim>16</dim>
					<dim>512</dim>
				</port>
				<port id="1">
					<dim>3</dim>
				</port>
			</input>
			<output>
				<port id="2" names="264" precision="FP32">
					<dim>8</dim>
					<dim>16</dim>
					<dim>512</dim>
				</port>
			</output>
		</layer>
		<layer id="5" name="267/Unsqueeze/Output_0/Data__const" type="Const" version="opset1">
			<data element_type="i64" offset="32792" shape="1" size="8"/>
			<output>
				<port id="0" names="267" precision="I64">
					<dim>1</dim>
				</port>
			</output>
		</layer>
		<layer id="6" name="268/Unsqueeze/Output_0/Data__const" type="Const" version="opset1">
			<data element_type="i64" offset="32800" shape="1" size="8"/>
			<output>
				<port id="0" names="268" precision="I64">
					<dim>1</dim>
				</port>
			</output>
		</layer>
		<layer id="7" name="261" type="ShapeOf" version="opset3">
			<data output_type="i64"/>
			<input>
				<port id="0">
					<dim>1</dim>
					<dim>16</dim>
					<dim>512</dim>
				</port>
			</input>
			<output>
				<port id="1" names="261" precision="I64">
					<dim>3</dim>
				</port>
			</output>
		</layer>
		<layer id="8" name="262935/Cast_116092_const" type="Const" version="opset1">
			<data element_type="i32" offset="32808" shape="" size="4"/>
			<output>
				<port id="0" names="260" precision="I32"/>
			</output>
		</layer>
		<layer id="9" name="262935/Cast_216094_const" type="Const" version="opset1">
			<data element_type="i64" offset="32812" shape="" size="8"/>
			<output>
				<port id="0" precision="I64"/>
			</output>
		</layer>
		<layer id="10" name="262935" type="Gather" version="opset1">
			<input>
				<port id="0">
					<dim>3</dim>
				</port>
				<port id="1"/>
				<port id="2"/>
			</input>
			<output>
				<port id="3" names="262" precision="I64"/>
			</output>
		</layer>
		<layer id="11" name="269/Dims/Output_0/Data__const" type="Const" version="opset1">
			<data element_type="i64" offset="32812" shape="1" size="8"/>
			<output>
				<port id="0" precision="I64">
					<dim>1</dim>
				</port>
			</output>
		</layer>
		<layer id="12" name="269/Unsqueeze" type="Unsqueeze" version="opset1">
			<input>
				<port id="0"/>
				<port id="1">
					<dim>1</dim>
				</port>
			</input>
			<output>
				<port id="2" names="269" precision="I64">
					<dim>1</dim>
				</port>
			</output>
		</layer>
		<layer id="13" name="270" type="Concat" version="opset1">
			<data axis="0"/>
			<input>
				<port id="0">
					<dim>1</dim>
				</port>
				<port id="1">
					<dim>1</dim>
				</port>
				<port id="2">
					<dim>1</dim>
				</port>
			</input>
			<output>
				<port id="3" names="270" precision="I64">
					<dim>3</dim>
				</port>
			</output>
		</layer>
		<layer id="14" name="271" type="Reshape" version="opset1">
			<data special_zero="true"/>
			<input>
				<port id="0">
					<dim>8</dim>
					<dim>16</dim>
					<dim>512</dim>
				</port>
				<port id="1">
					<dim>3</dim>
				</port>
			</input>
			<output>
				<port id="2" names="271" precision="FP32">
					<dim>8</dim>
					<dim>16</dim>
					<dim>512</dim>
				</port>
			</output>
		</layer>
		<layer id="15" name="218/Output_0/Data__const" type="Const" version="opset1">
			<data element_type="f32" offset="32820" shape="8,512,64" size="1048576"/>
			<output>
				<port id="0" names="218" precision="FP32">
					<dim>8</dim>
					<dim>512</dim>
					<dim>64</dim>
				</port>
			</output>
		</layer>
		<layer id="16" name="290" type="MatMul" version="opset1">
			<data transpose_a="false" transpose_b="false"/>
			<input>
				<port id="0">
					<dim>8</dim>
					<dim>16</dim>
					<dim>512</dim>
				</port>
				<port id="1">
					<dim>8</dim>
					<dim>512</dim>
					<dim>64</dim>
				</port>
			</input>
			<output>
				<port id="2" names="290" precision="FP32">
					<dim>8</dim>
					<dim>16</dim>
					<dim>64</dim>
				</port>
			</output>
		</layer>
		<layer id="17" name="293/Unsqueeze/Output_0/Data__const" type="Const" version="opset1">
			<data element_type="i64" offset="32800" shape="1" size="8"/>
			<output>
				<port id="0" names="293" precision="I64">
					<dim>1</dim>
				</port>
			</output>
		</layer>
		<layer id="18" name="252" type="ShapeOf" version="opset3">
			<data output_type="i64"/>
			<input>
				<port id="0">
					<dim>1</dim>
					<dim>16</dim>
					<dim>512</dim>
				</port>
			</input>
			<output>
				<port id="1" names="252" precision="I64">
					<dim>3</dim>
				</port>
			</output>
		</layer>
		<layer id="19" name="253919/Cast_116120_const" type="Const" version="opset1">
			<data element_type="i32" offset="1081396" shape="" size="4"/>
			<output>
				<port id="0" names="251" precision="I32"/>
			</output>
		</layer>
		<layer id="20" name="253919/Cast_216122_const" type="Const" version="opset1">
			<data element_type="i64" offset="32812" shape="" size="8"/>
			<output>
				<port id="0" precision="I64"/>
			</output>
		</layer>
		<layer id="21" name="253919" type="Gather" version="opset1">
			<input>
				<port id="0">
					<dim>3</dim>
				</port>
				<port id="1"/>
				<port id="2"/>
			</input>
			<output>
				<port id="3" names="253" precision="I64"/>
			</output>
		</layer>
		<layer id="22" name="294/Dims/Output_0/Data__const" type="Const" version="opset1">
			<data element_type="i64" offset="32812" shape="1" size="8"/>
			<output>
				<port id="0" precision="I64">
					<dim>1</dim>
				</port>
			</output>
		</layer>
		<layer id="23" name="294/Unsqueeze" type="Unsqueeze" version="opset1">
			<input>
				<port id="0"/>
				<port id="1">
					<dim>1</dim>
				</port>
			</input>
			<output>
				<port id="2" names="294" precision="I64">
					<dim>1</dim>
				</port>
			</output>
		</layer>
		<layer id="24" name="295/Unsqueeze/Output_0/Data__const" type="Const" version="opset1">
			<data element_type="i64" offset="1081400" shape="1" size="8"/>
			<output>
				<port id="0" names="295" precision="I64">
					<dim>1</dim>
				</port>
			</output>
		</layer>
		<layer id="25" name="296" type="Concat" version="opset1">
			<data axis="0"/>
			<input>
				<port id="0">
					<dim>1</dim>
				</port>
				<port id="1">
					<dim>1</dim>
				</port>
				<port id="2">
					<dim>1</dim>
				</port>
			</input>
			<output>
				<port id="3" names="296" precision="I64">
					<dim>3</dim>
				</port>
			</output>
		</layer>
		<layer id="26" name="297" type="Reshape" version="opset1">
			<data special_zero="true"/>
			<input>
				<port id="0">
					<dim>8</dim>
					<dim>16</dim>
					<dim>64</dim>
				</port>
				<port id="1">
					<dim>3</dim>
				</port>
			</input>
			<output>
				<port id="2" names="297" precision="FP32">
					<dim>8</dim>
					<dim>16</dim>
					<dim>64</dim>
				</port>
			</output>
		</layer>
		<layer id="27" name="272/Output_0/Data__const" type="Const" version="opset1">
			<data element_type="i64" offset="32768" shape="3" size="24"/>
			<output>
				<port id="0" names="272" precision="I64">
					<dim>3</dim>
				</port>
			</output>
		</layer>
		<layer id="28" name="273" type="Tile" version="opset1">
			<input>
				<port id="0">
					<dim>1</dim>
					<dim>16</dim>
					<dim>512</dim>
				</port>
				<port id="1">
					<dim>3</dim>
				</port>
			</input>
			<output>
				<port id="2" names="273" precision="FP32">
					<dim>8</dim>
					<dim>16</dim>
					<dim>512</dim>
				</port>
			</output>
		</layer>
		<layer id="29" name="276/Unsqueeze/Output_0/Data__const" type="Const" version="opset1">
			<data element_type="i64" offset="32792" shape="1" size="8"/>
			<output>
				<port id="0" names="276" precision="I64">
					<dim>1</dim>
				</port>
			</output>
		</layer>
		<layer id="30" name="277/Unsqueeze/Output_0/Data__const" type="Const" version="opset1">
			<data element_type="i64" offset="32800" shape="1" size="8"/>
			<output>
				<port id="0" names="277" precision="I64">
					<dim>1</dim>
				</port>
			</output>
		</layer>
		<layer id="31" name="278/Dims/Output_0/Data__const" type="Const" version="opset1">
			<data element_type="i64" offset="32812" shape="1" size="8"/>
			<output>
				<port id="0" precision="I64">
					<dim>1</dim>
				</port>
			</output>
		</layer>
		<layer id="32" name="278/Unsqueeze" type="Unsqueeze" version="opset1">
			<input>
				<port id="0"/>
				<port id="1">
					<dim>1</dim>
				</port>
			</input>
			<output>
				<port id="2" names="278" precision="I64">
					<dim>1</dim>
				</port>
			</output>
		</layer>
		<layer id="33" name="279" type="Concat" version="opset1">
			<data axis="0"/>
			<input>
				<port id="0">
					<dim>1</dim>
				</port>
				<port id="1">
					<dim>1</dim>
				</port>
				<port id="2">
					<dim>1</dim>
				</port>
			</input>
			<output>
				<port id="3" names="279" precision="I64">
					<dim>3</dim>
				</port>
			</output>
		</layer>
		<layer id="34" name="280" type="Reshape" version="opset1">
			<data special_zero="true"/>
			<input>
				<port id="0">
					<dim>8</dim>
					<dim>16</dim>
					<dim>512</dim>
				</port>
				<port id="1">
					<dim>3</dim>
				</port>
			</input>
			<output>
				<port id="2" names="280" precision="FP32">
					<dim>8</dim>
					<dim>16</dim>
					<dim>512</dim>
				</port>
			</output>
		</layer>
		<layer id="35" name="219/Output_0/Data__const" type="Const" version="opset1">
			<data element_type="f32" offset="1081408" shape="8,512,64" size="1048576"/>
			<output>
				<port id="0" names="219" precision="FP32">
					<dim>8</dim>
					<dim>512</dim>
					<dim>64</dim>
				</port>
			</output>
		</layer>
		<layer id="36" name="298" type="MatMul" version="opset1">
			<data transpose_a="false" transpose_b="false"/>
			<input>
				<port id="0">
					<dim>8</dim>
					<dim>16</dim>
					<dim>512</dim>
				</port>
				<port id="1">
					<dim>8</dim>
					<dim>512</dim>
					<dim>64</dim>
				</port>
			</input>
			<output>
				<port id="2" names="298" precision="FP32">
					<dim>8</dim>
					<dim>16</dim>
					<dim>64</dim>
				</port>
			</output>
		</layer>
		<layer id="37" name="301/Unsqueeze/Output_0/Data__const" type="Const" version="opset1">
			<data element_type="i64" offset="32800" shape="1" size="8"/>
			<output>
				<port id="0" names="301" precision="I64">
					<dim>1</dim>
				</port>
			</output>
		</layer>
		<layer id="38" name="255" type="ShapeOf" version="opset3">
			<data output_type="i64"/>
			<input>
				<port id="0">
					<dim>1</dim>
					<dim>16</dim>
					<dim>512</dim>
				</port>
			</input>
			<output>
				<port id="1" names="255" precision="I64">
					<dim>3</dim>
				</port>
			</output>
		</layer>
		<layer id="39" name="256927/Cast_115982_const" type="Const" version="opset1">
			<data element_type="i32" offset="1081396" shape="" size="4"/>
			<output>
				<port id="0" names="254" precision="I32"/>
			</output>
		</layer>
		<layer id="40" name="256927/Cast_215984_const" type="Const" version="opset1">
			<data element_type="i64" offset="32812" shape="" size="8"/>
			<output>
				<port id="0" precision="I64"/>
			</output>
		</layer>
		<layer id="41" name="256927" type="Gather" version="opset1">
			<input>
				<port id="0">
					<dim>3</dim>
				</port>
				<port id="1"/>
				<port id="2"/>
			</input>
			<output>
				<port id="3" names="256" precision="I64"/>
			</output>
		</layer>
		<layer id="42" name="302/Dims/Output_0/Data__const" type="Const" version="opset1">
			<data element_type="i64" offset="32812" shape="1" size="8"/>
			<output>
				<port id="0" precision="I64">
					<dim>1</dim>
				</port>
			</output>
		</layer>
		<layer id="43" name="302/Unsqueeze" type="Unsqueeze" version="opset1">
			<input>
				<port id="0"/>
				<port id="1">
					<dim>1</dim>
				</port>
			</input>
			<output>
				<port id="2" names="302" precision="I64">
					<dim>1</dim>
				</port>
			</output>
		</layer>
		<layer id="44" name="303/Unsqueeze/Output_0/Data__const" type="Const" version="opset1">
			<data element_type="i64" offset="1081400" shape="1" size="8"/>
			<output>
				<port id="0" names="303" precision="I64">
					<dim>1</dim>
				</port>
			</output>
		</layer>
		<layer id="45" name="304" type="Concat" version="opset1">
			<data axis="0"/>
			<input>
				<port id="0">
					<dim>1</dim>
				</port>
				<port id="1">
					<dim>1</dim>
				</port>
				<port id="2">
					<dim>1</dim>
				</port>
			</input>
			<output>
				<port id="3" names="304" precision="I64">
					<dim>3</dim>
				</port>
			</output>
		</layer>
		<layer id="46" name="305" type="Reshape" version="opset1">
			<data special_zero="true"/>
			<input>
				<port id="0">
					<dim>8</dim>
					<dim>16</dim>
					<dim>64</dim>
				</port>
				<port id="1">
					<dim>3</dim>
				</port>
			</input>
			<output>
				<port id="2" names="305" precision="FP32">
					<dim>8</dim>
					<dim>16</dim>
					<dim>64</dim>
				</port>
			</output>
		</layer>
		<layer id="47" name="314/Cast_116042_const" type="Const" version="opset1">
			<data element_type="i64" offset="2129984" shape="3" size="24"/>
			<output>
				<port id="0" precision="I64">
					<dim>3</dim>
				</port>
			</output>
		</layer>
		<layer id="48" name="314" type="Transpose" version="opset1">
			<input>
				<port id="0">
					<dim>8</dim>
					<dim>16</dim>
					<dim>64</dim>
				</port>
				<port id="1">
					<dim>3</dim>
				</port>
			</input>
			<output>
				<port id="2" precision="FP32">
					<dim>8</dim>
					<dim>64</dim>
					<dim>16</dim>
				</port>
			</output>
		</layer>
		<layer id="49" name="317_copy/const75118385/EltwiseUnsqueeze8392_const" type="Const" version="opset1">
			<data element_type="f32" offset="2130008" shape="1,64,1" size="256"/>
			<output>
				<port id="0" precision="FP32">
					<dim>1</dim>
					<dim>64</dim>
					<dim>1</dim>
				</port>
			</output>
		</layer>
		<layer id="50" name="317_copy" type="Multiply" version="opset1">
			<data auto_broadcast="numpy"/>
			<input>
				<port id="0">
					<dim>8</dim>
					<dim>64</dim>
					<dim>16</dim>
				</port>
				<port id="1">
					<dim>1</dim>
					<dim>64</dim>
					<dim>1</dim>
				</port>
			</input>
			<output>
				<port id="2" names="314" precision="FP32">
					<dim>8</dim>
					<dim>64</dim>
					<dim>16</dim>
				</port>
			</output>
		</layer>
		<layer id="51" name="315" type="MatMul" version="opset1">
			<data transpose_a="false" transpose_b="false"/>
			<input>
				<port id="0">
					<dim>8</dim>
					<dim>16</dim>
					<dim>64</dim>
				</port>
				<port id="1">
					<dim>8</dim>
					<dim>64</dim>
					<dim>16</dim>
				</port>
			</input>
			<output>
				<port id="2" names="317" precision="FP32">
					<dim>8</dim>
					<dim>16</dim>
					<dim>16</dim>
				</port>
			</output>
		</layer>
		<layer id="52" name="319" type="ShapeOf" version="opset3">
			<data output_type="i64"/>
			<input>
				<port id="0">
					<dim>8</dim>
					<dim>16</dim>
					<dim>16</dim>
				</port>
			</input>
			<output>
				<port id="1" names="319" precision="I64">
					<dim>3</dim>
				</port>
			</output>
		</layer>
		<layer id="53" name="320909/Cast_116100_const" type="Const" version="opset1">
			<data element_type="i32" offset="2130264" shape="" size="4"/>
			<output>
				<port id="0" names="318" precision="I32"/>
			</output>
		</layer>
		<layer id="54" name="320909/Cast_216102_const" type="Const" version="opset1">
			<data element_type="i64" offset="32812" shape="" size="8"/>
			<output>
				<port id="0" precision="I64"/>
			</output>
		</layer>
		<layer id="55" name="320909" type="Gather" version="opset1">
			<input>
				<port id="0">
					<dim>3</dim>
				</port>
				<port id="1"/>
				<port id="2"/>
			</input>
			<output>
				<port id="3" names="320" precision="I64"/>
			</output>
		</layer>
		<layer id="56" name="322" type="ShapeOf" version="opset3">
			<data output_type="i64"/>
			<input>
				<port id="0">
					<dim>8</dim>
					<dim>16</dim>
					<dim>16</dim>
				</port>
			</input>
			<output>
				<port id="1" names="322" precision="I64">
					<dim>3</dim>
				</port>
			</output>
		</layer>
		<layer id="57" name="323933/Cast_115974_const" type="Const" version="opset1">
			<data element_type="i32" offset="1081396" shape="" size="4"/>
			<output>
				<port id="0" names="321" precision="I32"/>
			</output>
		</layer>
		<layer id="58" name="323933/Cast_215976_const" type="Const" version="opset1">
			<data element_type="i64" offset="32812" shape="" size="8"/>
			<output>
				<port id="0" precision="I64"/>
			</output>
		</layer>
		<layer id="59" name="323933" type="Gather" version="opset1">
			<input>
				<port id="0">
					<dim>3</dim>
				</port>
				<port id="1"/>
				<port id="2"/>
			</input>
			<output>
				<port id="3" names="323" precision="I64"/>
			</output>
		</layer>
		<layer id="60" name="324" type="Multiply" version="opset1">
			<data auto_broadcast="numpy"/>
			<input>
				<port id="0"/>
				<port id="1"/>
			</input>
			<output>
				<port id="2" names="324" precision="I64"/>
			</output>
		</layer>
		<layer id="61" name="326/Dims/Output_0/Data__const" type="Const" version="opset1">
			<data element_type="i64" offset="32812" shape="1" size="8"/>
			<output>
				<port id="0" precision="I64">
					<dim>1</dim>
				</port>
			</output>
		</layer>
		<layer id="62" name="326/Unsqueeze" type="Unsqueeze" version="opset1">
			<input>
				<port id="0"/>
				<port id="1">
					<dim>1</dim>
				</port>
			</input>
			<output>
				<port id="2" names="326" precision="I64">
					<dim>1</dim>
				</port>
			</output>
		</layer>
		<layer id="63" name="327/Unsqueeze/Output_0/Data__const" type="Const" version="opset1">
			<data element_type="i64" offset="32800" shape="1" size="8"/>
			<output>
				<port id="0" names="327" precision="I64">
					<dim>1</dim>
				</port>
			</output>
		</layer>
		<layer id="64" name="328" type="Concat" version="opset1">
			<data axis="0"/>
			<input>
				<port id="0">
					<dim>1</dim>
				</port>
				<port id="1">
					<dim>1</dim>
				</port>
			</input>
			<output>
				<port id="2" names="328" precision="I64">
					<dim>2</dim>
				</port>
			</output>
		</layer>
		<layer id="65" name="329" type="Reshape" version="opset1">
			<data special_zero="true"/>
			<input>
				<port id="0">
					<dim>8</dim>
					<dim>16</dim>
					<dim>16</dim>
				</port>
				<port id="1">
					<dim>2</dim>
				</port>
			</input>
			<output>
				<port id="2" names="329" precision="FP32">
					<dim>128</dim>
					<dim>16</dim>
				</port>
			</output>
		</layer>
		<layer id="66" name="330/FlattenONNX_/Reshape/Cast_116182_const" type="Const" version="opset1">
			<data element_type="i64" offset="2130268" shape="2" size="16"/>
			<output>
				<port id="0" precision="I64">
					<dim>2</dim>
				</port>
			</output>
		</layer>
		<layer id="67" name="330/FlattenONNX_/Reshape" type="Reshape" version="opset1">
			<data special_zero="true"/>
			<input>
				<port id="0">
					<dim>128</dim>
					<dim>16</dim>
				</port>
				<port id="1">
					<dim>2</dim>
				</port>
			</input>
			<output>
				<port id="2" precision="FP32">
					<dim>128</dim>
					<dim>16</dim>
				</port>
			</output>
		</layer>
		<layer id="68" name="330/Softmax_" type="SoftMax" version="opset1">
			<data axis="1"/>
			<input>
				<port id="0">
					<dim>128</dim>
					<dim>16</dim>
				</port>
			</input>
			<output>
				<port id="1" precision="FP32">
					<dim>128</dim>
					<dim>16</dim>
				</port>
			</output>
		</layer>
		<layer id="69" name="330/ShapeOf_" type="ShapeOf" version="opset3">
			<data output_type="i64"/>
			<input>
				<port id="0">
					<dim>128</dim>
					<dim>16</dim>
				</port>
			</input>
			<output>
				<port id="1" precision="I64">
					<dim>2</dim>
				</port>
			</output>
		</layer>
		<layer id="70" name="330" type="Reshape" version="opset1">
			<data special_zero="true"/>
			<input>
				<port id="0">
					<dim>128</dim>
					<dim>16</dim>
				</port>
				<port id="1">
					<dim>2</dim>
				</port>
			</input>
			<output>
				<port id="2" names="330" precision="FP32">
					<dim>128</dim>
					<dim>16</dim>
				</port>
			</output>
		</layer>
		<layer id="71" name="332/Dims/Output_0/Data__const" type="Const" version="opset1">
			<data element_type="i64" offset="32812" shape="1" size="8"/>
			<output>
				<port id="0" precision="I64">
					<dim>1</dim>
				</port>
			</output>
		</layer>
		<layer id="72" name="332/Unsqueeze" type="Unsqueeze" version="opset1">
			<input>
				<port id="0"/>
				<port id="1">
					<dim>1</dim>
				</port>
			</input>
			<output>
				<port id="2" names="332" precision="I64">
					<dim>1</dim>
				</port>
			</output>
		</layer>
		<layer id="73" name="333/Dims/Output_0/Data__const" type="Const" version="opset1">
			<data element_type="i64" offset="32812" shape="1" size="8"/>
			<output>
				<port id="0" precision="I64">
					<dim>1</dim>
				</port>
			</output>
		</layer>
		<layer id="74" name="333/Unsqueeze" type="Unsqueeze" version="opset1">
			<input>
				<port id="0"/>
				<port id="1">
					<dim>1</dim>
				</port>
			</input>
			<output>
				<port id="2" names="333" precision="I64">
					<dim>1</dim>
				</port>
			</output>
		</layer>
		<layer id="75" name="334/Unsqueeze/Output_0/Data__const" type="Const" version="opset1">
			<data element_type="i64" offset="32800" shape="1" size="8"/>
			<output>
				<port id="0" names="334" precision="I64">
					<dim>1</dim>
				</port>
			</output>
		</layer>
		<layer id="76" name="335" type="Concat" version="opset1">
			<data axis="0"/>
			<input>
				<port id="0">
					<dim>1</dim>
				</port>
				<port id="1">
					<dim>1</dim>
				</port>
				<port id="2">
					<dim>1</dim>
				</port>
			</input>
			<output>
				<port id="3" names="335" precision="I64">
					<dim>3</dim>
				</port>
			</output>
		</layer>
		<layer id="77" name="336" type="Reshape" version="opset1">
			<data special_zero="true"/>
			<input>
				<port id="0">
					<dim>128</dim>
					<dim>16</dim>
				</port>
				<port id="1">
					<dim>3</dim>
				</port>
			</input>
			<output>
				<port id="2" names="337,336" precision="FP32">
					<dim>8</dim>
					<dim>16</dim>
					<dim>16</dim>
				</port>
			</output>
		</layer>
		<layer id="78" name="281/Output_0/Data__const" type="Const" version="opset1">
			<data element_type="i64" offset="32768" shape="3" size="24"/>
			<output>
				<port id="0" names="281" precision="I64">
					<dim>3</dim>
				</port>
			</output>
		</layer>
		<layer id="79" name="282" type="Tile" version="opset1">
			<input>
				<port id="0">
					<dim>1</dim>
					<dim>16</dim>
					<dim>512</dim>
				</port>
				<port id="1">
					<dim>3</dim>
				</port>
			</input>
			<output>
				<port id="2" names="282" precision="FP32">
					<dim>8</dim>
					<dim>16</dim>
					<dim>512</dim>
				</port>
			</output>
		</layer>
		<layer id="80" name="285/Unsqueeze/Output_0/Data__const" type="Const" version="opset1">
			<data element_type="i64" offset="32792" shape="1" size="8"/>
			<output>
				<port id="0" names="285" precision="I64">
					<dim>1</dim>
				</port>
			</output>
		</layer>
		<layer id="81" name="286/Unsqueeze/Output_0/Data__const" type="Const" version="opset1">
			<data element_type="i64" offset="32800" shape="1" size="8"/>
			<output>
				<port id="0" names="286" precision="I64">
					<dim>1</dim>
				</port>
			</output>
		</layer>
		<layer id="82" name="287/Dims/Output_0/Data__const" type="Const" version="opset1">
			<data element_type="i64" offset="32812" shape="1" size="8"/>
			<output>
				<port id="0" precision="I64">
					<dim>1</dim>
				</port>
			</output>
		</layer>
		<layer id="83" name="287/Unsqueeze" type="Unsqueeze" version="opset1">
			<input>
				<port id="0"/>
				<port id="1">
					<dim>1</dim>
				</port>
			</input>
			<output>
				<port id="2" names="287" precision="I64">
					<dim>1</dim>
				</port>
			</output>
		</layer>
		<layer id="84" name="288" type="Concat" version="opset1">
			<data axis="0"/>
			<input>
				<port id="0">
					<dim>1</dim>
				</port>
				<port id="1">
					<dim>1</dim>
				</port>
				<port id="2">
					<dim>1</dim>
				</port>
			</input>
			<output>
				<port id="3" names="288" precision="I64">
					<dim>3</dim>
				</port>
			</output>
		</layer>
		<layer id="85" name="289" type="Reshape" version="opset1">
			<data special_zero="true"/>
			<input>
				<port id="0">
					<dim>8</dim>
					<dim>16</dim>
					<dim>512</dim>
				</port>
				<port id="1">
					<dim>3</dim>
				</port>
			</input>
			<output>
				<port id="2" names="289" precision="FP32">
					<dim>8</dim>
					<dim>16</dim>
					<dim>512</dim>
				</port>
			</output>
		</layer>
		<layer id="86" name="220/Output_0/Data__const" type="Const" version="opset1">
			<data element_type="f32" offset="2130284" shape="8,512,64" size="1048576"/>
			<output>
				<port id="0" names="220" precision="FP32">
					<dim>8</dim>
					<dim>512</dim>
					<dim>64</dim>
				</port>
			</output>
		</layer>
		<layer id="87" name="306" type="MatMul" version="opset1">
			<data transpose_a="false" transpose_b="false"/>
			<input>
				<port id="0">
					<dim>8</dim>
					<dim>16</dim>
					<dim>512</dim>
				</port>
				<port id="1">
					<dim>8</dim>
					<dim>512</dim>
					<dim>64</dim>
				</port>
			</input>
			<output>
				<port id="2" names="306" precision="FP32">
					<dim>8</dim>
					<dim>16</dim>
					<dim>64</dim>
				</port>
			</output>
		</layer>
		<layer id="88" name="309/Unsqueeze/Output_0/Data__const" type="Const" version="opset1">
			<data element_type="i64" offset="32800" shape="1" size="8"/>
			<output>
				<port id="0" names="309" precision="I64">
					<dim>1</dim>
				</port>
			</output>
		</layer>
		<layer id="89" name="258" type="ShapeOf" version="opset3">
			<data output_type="i64"/>
			<input>
				<port id="0">
					<dim>1</dim>
					<dim>16</dim>
					<dim>512</dim>
				</port>
			</input>
			<output>
				<port id="1" names="258" precision="I64">
					<dim>3</dim>
				</port>
			</output>
		</layer>
		<layer id="90" name="259931/Cast_116160_const" type="Const" version="opset1">
			<data element_type="i32" offset="1081396" shape="" size="4"/>
			<output>
				<port id="0" names="257" precision="I32"/>
			</output>
		</layer>
		<layer id="91" name="259931/Cast_216162_const" type="Const" version="opset1">
			<data element_type="i64" offset="32812" shape="" size="8"/>
			<output>
				<port id="0" precision="I64"/>
			</output>
		</layer>
		<layer id="92" name="259931" type="Gather" version="opset1">
			<input>
				<port id="0">
					<dim>3</dim>
				</port>
				<port id="1"/>
				<port id="2"/>
			</input>
			<output>
				<port id="3" names="259" precision="I64"/>
			</output>
		</layer>
		<layer id="93" name="310/Dims/Output_0/Data__const" type="Const" version="opset1">
			<data element_type="i64" offset="32812" shape="1" size="8"/>
			<output>
				<port id="0" precision="I64">
					<dim>1</dim>
				</port>
			</output>
		</layer>
		<layer id="94" name="310/Unsqueeze" type="Unsqueeze" version="opset1">
			<input>
				<port id="0"/>
				<port id="1">
					<dim>1</dim>
				</port>
			</input>
			<output>
				<port id="2" names="310" precision="I64">
					<dim>1</dim>
				</port>
			</output>
		</layer>
		<layer id="95" name="311/Unsqueeze/Output_0/Data__const" type="Const" version="opset1">
			<data element_type="i64" offset="1081400" shape="1" size="8"/>
			<output>
				<port id="0" names="311" precision="I64">
					<dim>1</dim>
				</port>
			</output>
		</layer>
		<layer id="96" name="312" type="Concat" version="opset1">
			<data axis="0"/>
			<input>
				<port id="0">
					<dim>1</dim>
				</port>
				<port id="1">
					<dim>1</dim>
				</port>
				<port id="2">
					<dim>1</dim>
				</port>
			</input>
			<output>
				<port id="3" names="312" precision="I64">
					<dim>3</dim>
				</port>
			</output>
		</layer>
		<layer id="97" name="313" type="Reshape" version="opset1">
			<data special_zero="true"/>
			<input>
				<port id="0">
					<dim>8</dim>
					<dim>16</dim>
					<dim>64</dim>
				</port>
				<port id="1">
					<dim>3</dim>
				</port>
			</input>
			<output>
				<port id="2" names="313" precision="FP32">
					<dim>8</dim>
					<dim>16</dim>
					<dim>64</dim>
				</port>
			</output>
		</layer>
		<layer id="98" name="339" type="MatMul" version="opset1">
			<data transpose_a="false" transpose_b="false"/>
			<input>
				<port id="0">
					<dim>8</dim>
					<dim>16</dim>
					<dim>16</dim>
				</port>
				<port id="1">
					<dim>8</dim>
					<dim>16</dim>
					<dim>64</dim>
				</port>
			</input>
			<output>
				<port id="2" names="339" precision="FP32">
					<dim>8</dim>
					<dim>16</dim>
					<dim>64</dim>
				</port>
			</output>
		</layer>
		<layer id="99" name="341/Cast_116076_const" type="Const" version="opset1">
			<data element_type="i64" offset="3178860" shape="4" size="32"/>
			<output>
				<port id="0" names="340" precision="I64">
					<dim>4</dim>
				</port>
			</output>
		</layer>
		<layer id="100" name="341" type="Reshape" version="opset1">
			<data special_zero="true"/>
			<input>
				<port id="0">
					<dim>8</dim>
					<dim>16</dim>
					<dim>64</dim>
				</port>
				<port id="1">
					<dim>4</dim>
				</port>
			</input>
			<output>
				<port id="2" names="341" precision="FP32">
					<dim>8</dim>
					<dim>1</dim>
					<dim>16</dim>
					<dim>64</dim>
				</port>
			</output>
		</layer>
		<layer id="101" name="342/Cast_115996_const" type="Const" version="opset1">
			<data element_type="i64" offset="3178892" shape="4" size="32"/>
			<output>
				<port id="0" precision="I64">
					<dim>4</dim>
				</port>
			</output>
		</layer>
		<layer id="102" name="342" type="Transpose" version="opset1">
			<input>
				<port id="0">
					<dim>8</dim>
					<dim>1</dim>
					<dim>16</dim>
					<dim>64</dim>
				</port>
				<port id="1">
					<dim>4</dim>
				</port>
			</input>
			<output>
				<port id="2" names="342" precision="FP32">
					<dim>1</dim>
					<dim>16</dim>
					<dim>8</dim>
					<dim>64</dim>
				</port>
			</output>
		</layer>
		<layer id="103" name="344/Cast_116108_const" type="Const" version="opset1">
			<data element_type="i64" offset="3178924" shape="3" size="24"/>
			<output>
				<port id="0" names="343" precision="I64">
					<dim>3</dim>
				</port>
			</output>
		</layer>
		<layer id="104" name="344" type="Reshape" version="opset1">
			<data special_zero="true"/>
			<input>
				<port id="0">
					<dim>1</dim>
					<dim>16</dim>
					<dim>8</dim>
					<dim>64</dim>
				</port>
				<port id="1">
					<dim>3</dim>
				</port>
			</input>
			<output>
				<port id="2" names="345,344" precision="FP32">
					<dim>1</dim>
					<dim>16</dim>
					<dim>512</dim>
				</port>
			</output>
		</layer>
		<layer id="105" name="347" type="Add" version="opset1">
			<data auto_broadcast="numpy"/>
			<input>
				<port id="0">
					<dim>1</dim>
					<dim>16</dim>
					<dim>512</dim>
				</port>
				<port id="1">
					<dim>1</dim>
					<dim>16</dim>
					<dim>512</dim>
				</port>
			</input>
			<output>
				<port id="2" names="347" precision="FP32">
					<dim>1</dim>
					<dim>16</dim>
					<dim>512</dim>
				</port>
			</output>
		</layer>
		<layer id="106" name="348/Cast_116034_const" type="Const" version="opset1">
			<data element_type="i64" offset="2129984" shape="3" size="24"/>
			<output>
				<port id="0" precision="I64">
					<dim>3</dim>
				</port>
			</output>
		</layer>
		<layer id="107" name="348" type="Transpose" version="opset1">
			<input>
				<port id="0">
					<dim>1</dim>
					<dim>16</dim>
					<dim>512</dim>
				</port>
				<port id="1">
					<dim>3</dim>
				</port>
			</input>
			<output>
				<port id="2" names="348" precision="FP32">
					<dim>1</dim>
					<dim>512</dim>
					<dim>16</dim>
				</port>
			</output>
		</layer>
		<layer id="108" name="221/Output_0/Data__const" type="Const" version="opset1">
			<data element_type="f32" offset="3178948" shape="1024,512,1" size="2097152"/>
			<output>
				<port id="0" names="221" precision="FP32">
					<dim>1024</dim>
					<dim>512</dim>
					<dim>1</dim>
				</port>
			</output>
		</layer>
		<layer id="109" name="349/WithoutBiases" type="Convolution" version="opset1">
			<data auto_pad="explicit" dilations="1" pads_begin="0" pads_end="0" strides="1"/>
			<input>
				<port id="0">
					<dim>1</dim>
					<dim>512</dim>
					<dim>16</dim>
				</port>
				<port id="1">
					<dim>1024</dim>
					<dim>512</dim>
					<dim>1</dim>
				</port>
			</input>
			<output>
				<port id="2" precision="FP32">
					<dim>1</dim>
					<dim>1024</dim>
					<dim>16</dim>
				</port>
			</output>
		</layer>
		<layer id="110" name="349/Dims45907227/EltwiseUnsqueeze7256_const" type="Const" version="opset1">
			<data element_type="f32" offset="5276100" shape="1,1024,1" size="4096"/>
			<output>
				<port id="0" precision="FP32">
					<dim>1</dim>
					<dim>1024</dim>
					<dim>1</dim>
				</port>
			</output>
		</layer>
		<layer id="111" name="349" type="Add" version="opset1">
			<data auto_broadcast="numpy"/>
			<input>
				<port id="0">
					<dim>1</dim>
					<dim>1024</dim>
					<dim>16</dim>
				</port>
				<port id="1">
					<dim>1</dim>
					<dim>1024</dim>
					<dim>1</dim>
				</port>
			</input>
			<output>
				<port id="2" names="349" precision="FP32">
					<dim>1</dim>
					<dim>1024</dim>
					<dim>16</dim>
				</port>
			</output>
		</layer>
		<layer id="112" name="350" type="ReLU" version="opset1">
			<input>
				<port id="0">
					<dim>1</dim>
					<dim>1024</dim>
					<dim>16</dim>
				</port>
			</input>
			<output>
				<port id="1" names="350" precision="FP32">
					<dim>1</dim>
					<dim>1024</dim>
					<dim>16</dim>
				</port>
			</output>
		</layer>
		<layer id="113" name="223/Output_0/Data__const" type="Const" version="opset1">
			<data element_type="f32" offset="5280196" shape="512,1024,1" size="2097152"/>
			<output>
				<port id="0" names="223" precision="FP32">
					<dim>512</dim>
					<dim>1024</dim>
					<dim>1</dim>
				</port>
			</output>
		</layer>
		<layer id="114" name="351/WithoutBiases" type="Convolution" version="opset1">
			<data auto_pad="explicit" dilations="1" pads_begin="0" pads_end="0" strides="1"/>
			<input>
				<port id="0">
					<dim>1</dim>
					<dim>1024</dim>
					<dim>16</dim>
				</port>
				<port id="1">
					<dim>512</dim>
					<dim>1024</dim>
					<dim>1</dim>
				</port>
			</input>
			<output>
				<port id="2" precision="FP32">
					<dim>1</dim>
					<dim>512</dim>
					<dim>16</dim>
				</port>
			</output>
		</layer>
		<layer id="115" name="351/Dims46207232/EltwiseUnsqueeze7276_const" type="Const" version="opset1">
			<data element_type="f32" offset="7377348" shape="1,512,1" size="2048"/>
			<output>
				<port id="0" precision="FP32">
					<dim>1</dim>
					<dim>512</dim>
					<dim>1</dim>
				</port>
			</output>
		</layer>
		<layer id="116" name="351" type="Add" version="opset1">
			<data auto_broadcast="numpy"/>
			<input>
				<port id="0">
					<dim>1</dim>
					<dim>512</dim>
					<dim>16</dim>
				</port>
				<port id="1">
					<dim>1</dim>
					<dim>512</dim>
					<dim>1</dim>
				</port>
			</input>
			<output>
				<port id="2" names="351" precision="FP32">
					<dim>1</dim>
					<dim>512</dim>
					<dim>16</dim>
				</port>
			</output>
		</layer>
		<layer id="117" name="352/Cast_116056_const" type="Const" version="opset1">
			<data element_type="i64" offset="2129984" shape="3" size="24"/>
			<output>
				<port id="0" precision="I64">
					<dim>3</dim>
				</port>
			</output>
		</layer>
		<layer id="118" name="352" type="Transpose" version="opset1">
			<input>
				<port id="0">
					<dim>1</dim>
					<dim>512</dim>
					<dim>16</dim>
				</port>
				<port id="1">
					<dim>3</dim>
				</port>
			</input>
			<output>
				<port id="2" names="353,352" precision="FP32">
					<dim>1</dim>
					<dim>16</dim>
					<dim>512</dim>
				</port>
			</output>
		</layer>
		<layer id="119" name="355" type="Add" version="opset1">
			<data auto_broadcast="numpy"/>
			<input>
				<port id="0">
					<dim>1</dim>
					<dim>16</dim>
					<dim>512</dim>
				</port>
				<port id="1">
					<dim>1</dim>
					<dim>16</dim>
					<dim>512</dim>
				</port>
			</input>
			<output>
				<port id="2" names="355" precision="FP32">
					<dim>1</dim>
					<dim>16</dim>
					<dim>512</dim>
				</port>
			</output>
		</layer>
		<layer id="120" name="368/Output_0/Data__const" type="Const" version="opset1">
			<data element_type="i64" offset="32768" shape="3" size="24"/>
			<output>
				<port id="0" names="368" precision="I64">
					<dim>3</dim>
				</port>
			</output>
		</layer>
		<layer id="121" name="369" type="Tile" version="opset1">
			<input>
				<port id="0">
					<dim>1</dim>
					<dim>16</dim>
					<dim>512</dim>
				</port>
				<port id="1">
					<dim>3</dim>
				</port>
			</input>
			<output>
				<port id="2" names="369" precision="FP32">
					<dim>8</dim>
					<dim>16</dim>
					<dim>512</dim>
				</port>
			</output>
		</layer>
		<layer id="122" name="372/Unsqueeze/Output_0/Data__const" type="Const" version="opset1">
			<data element_type="i64" offset="32792" shape="1" size="8"/>
			<output>
				<port id="0" names="372" precision="I64">
					<dim>1</dim>
				</port>
			</output>
		</layer>
		<layer id="123" name="373/Unsqueeze/Output_0/Data__const" type="Const" version="opset1">
			<data element_type="i64" offset="32800" shape="1" size="8"/>
			<output>
				<port id="0" names="373" precision="I64">
					<dim>1</dim>
				</port>
			</output>
		</layer>
		<layer id="124" name="366" type="ShapeOf" version="opset3">
			<data output_type="i64"/>
			<input>
				<port id="0">
					<dim>1</dim>
					<dim>16</dim>
					<dim>512</dim>
				</port>
			</input>
			<output>
				<port id="1" names="366" precision="I64">
					<dim>3</dim>
				</port>
			</output>
		</layer>
		<layer id="125" name="367929/Cast_116030_const" type="Const" version="opset1">
			<data element_type="i32" offset="32808" shape="" size="4"/>
			<output>
				<port id="0" names="365" precision="I32"/>
			</output>
		</layer>
		<layer id="126" name="367929/Cast_216032_const" type="Const" version="opset1">
			<data element_type="i64" offset="32812" shape="" size="8"/>
			<output>
				<port id="0" precision="I64"/>
			</output>
		</layer>
		<layer id="127" name="367929" type="Gather" version="opset1">
			<input>
				<port id="0">
					<dim>3</dim>
				</port>
				<port id="1"/>
				<port id="2"/>
			</input>
			<output>
				<port id="3" names="367" precision="I64"/>
			</output>
		</layer>
		<layer id="128" name="374/Dims/Output_0/Data__const" type="Const" version="opset1">
			<data element_type="i64" offset="32812" shape="1" size="8"/>
			<output>
				<port id="0" precision="I64">
					<dim>1</dim>
				</port>
			</output>
		</layer>
		<layer id="129" name="374/Unsqueeze" type="Unsqueeze" version="opset1">
			<input>
				<port id="0"/>
				<port id="1">
					<dim>1</dim>
				</port>
			</input>
			<output>
				<port id="2" names="374" precision="I64">
					<dim>1</dim>
				</port>
			</output>
		</layer>
		<layer id="130" name="375" type="Concat" version="opset1">
			<data axis="0"/>
			<input>
				<port id="0">
					<dim>1</dim>
				</port>
				<port id="1">
					<dim>1</dim>
				</port>
				<port id="2">
					<dim>1</dim>
				</port>
			</input>
			<output>
				<port id="3" names="375" precision="I64">
					<dim>3</dim>
				</port>
			</output>
		</layer>
		<layer id="131" name="376" type="Reshape" version="opset1">
			<data special_zero="true"/>
			<input>
				<port id="0">
					<dim>8</dim>
					<dim>16</dim>
					<dim>512</dim>
				</port>
				<port id="1">
					<dim>3</dim>
				</port>
			</input>
			<output>
				<port id="2" names="376" precision="FP32">
					<dim>8</dim>
					<dim>16</dim>
					<dim>512</dim>
				</port>
			</output>
		</layer>
		<layer id="132" name="225/Output_0/Data__const" type="Const" version="opset1">
			<data element_type="f32" offset="7379396" shape="8,512,64" size="1048576"/>
			<output>
				<port id="0" names="225" precision="FP32">
					<dim>8</dim>
					<dim>512</dim>
					<dim>64</dim>
				</port>
			</output>
		</layer>
		<layer id="133" name="395" type="MatMul" version="opset1">
			<data transpose_a="false" transpose_b="false"/>
			<input>
				<port id="0">
					<dim>8</dim>
					<dim>16</dim>
					<dim>512</dim>
				</port>
				<port id="1">
					<dim>8</dim>
					<dim>512</dim>
					<dim>64</dim>
				</port>
			</input>
			<output>
				<port id="2" names="395" precision="FP32">
					<dim>8</dim>
					<dim>16</dim>
					<dim>64</dim>
				</port>
			</output>
		</layer>
		<layer id="134" name="398/Unsqueeze/Output_0/Data__const" type="Const" version="opset1">
			<data element_type="i64" offset="32800" shape="1" size="8"/>
			<output>
				<port id="0" names="398" precision="I64">
					<dim>1</dim>
				</port>
			</output>
		</layer>
		<layer id="135" name="357" type="ShapeOf" version="opset3">
			<data output_type="i64"/>
			<input>
				<port id="0">
					<dim>1</dim>
					<dim>16</dim>
					<dim>512</dim>
				</port>
			</input>
			<output>
				<port id="1" names="357" precision="I64">
					<dim>3</dim>
				</port>
			</output>
		</layer>
		<layer id="136" name="358925/Cast_116126_const" type="Const" version="opset1">
			<data element_type="i32" offset="1081396" shape="" size="4"/>
			<output>
				<port id="0" names="356" precision="I32"/>
			</output>
		</layer>
		<layer id="137" name="358925/Cast_216128_const" type="Const" version="opset1">
			<data element_type="i64" offset="32812" shape="" size="8"/>
			<output>
				<port id="0" precision="I64"/>
			</output>
		</layer>
		<layer id="138" name="358925" type="Gather" version="opset1">
			<input>
				<port id="0">
					<dim>3</dim>
				</port>
				<port id="1"/>
				<port id="2"/>
			</input>
			<output>
				<port id="3" names="358" precision="I64"/>
			</output>
		</layer>
		<layer id="139" name="399/Dims/Output_0/Data__const" type="Const" version="opset1">
			<data element_type="i64" offset="32812" shape="1" size="8"/>
			<output>
				<port id="0" precision="I64">
					<dim>1</dim>
				</port>
			</output>
		</layer>
		<layer id="140" name="399/Unsqueeze" type="Unsqueeze" version="opset1">
			<input>
				<port id="0"/>
				<port id="1">
					<dim>1</dim>
				</port>
			</input>
			<output>
				<port id="2" names="399" precision="I64">
					<dim>1</dim>
				</port>
			</output>
		</layer>
		<layer id="141" name="400/Unsqueeze/Output_0/Data__const" type="Const" version="opset1">
			<data element_type="i64" offset="1081400" shape="1" size="8"/>
			<output>
				<port id="0" names="400" precision="I64">
					<dim>1</dim>
				</port>
			</output>
		</layer>
		<layer id="142" name="401" type="Concat" version="opset1">
			<data axis="0"/>
			<input>
				<port id="0">
					<dim>1</dim>
				</port>
				<port id="1">
					<dim>1</dim>
				</port>
				<port id="2">
					<dim>1</dim>
				</port>
			</input>
			<output>
				<port id="3" names="401" precision="I64">
					<dim>3</dim>
				</port>
			</output>
		</layer>
		<layer id="143" name="402" type="Reshape" version="opset1">
			<data special_zero="true"/>
			<input>
				<port id="0">
					<dim>8</dim>
					<dim>16</dim>
					<dim>64</dim>
				</port>
				<port id="1">
					<dim>3</dim>
				</port>
			</input>
			<output>
				<port id="2" names="402" precision="FP32">
					<dim>8</dim>
					<dim>16</dim>
					<dim>64</dim>
				</port>
			</output>
		</layer>
		<layer id="144" name="377/Output_0/Data__const" type="Const" version="opset1">
			<data element_type="i64" offset="32768" shape="3" size="24"/>
			<output>
				<port id="0" names="377" precision="I64">
					<dim>3</dim>
				</port>
			</output>
		</layer>
		<layer id="145" name="378" type="Tile" version="opset1">
			<input>
				<port id="0">
					<dim>1</dim>
					<dim>16</dim>
					<dim>512</dim>
				</port>
				<port id="1">
					<dim>3</dim>
				</port>
			</input>
			<output>
				<port id="2" names="378" precision="FP32">
					<dim>8</dim>
					<dim>16</dim>
					<dim>512</dim>
				</port>
			</output>
		</layer>
		<layer id="146" name="381/Unsqueeze/Output_0/Data__const" type="Const" version="opset1">
			<data element_type="i64" offset="32792" shape="1" size="8"/>
			<output>
				<port id="0" names="381" precision="I64">
					<dim>1</dim>
				</port>
			</output>
		</layer>
		<layer id="147" name="382/Unsqueeze/Output_0/Data__const" type="Const" version="opset1">
			<data element_type="i64" offset="32800" shape="1" size="8"/>
			<output>
				<port id="0" names="382" precision="I64">
					<dim>1</dim>
				</port>
			</output>
		</layer>
		<layer id="148" name="383/Dims/Output_0/Data__const" type="Const" version="opset1">
			<data element_type="i64" offset="32812" shape="1" size="8"/>
			<output>
				<port id="0" precision="I64">
					<dim>1</dim>
				</port>
			</output>
		</layer>
		<layer id="149" name="383/Unsqueeze" type="Unsqueeze" version="opset1">
			<input>
				<port id="0"/>
				<port id="1">
					<dim>1</dim>
				</port>
			</input>
			<output>
				<port id="2" names="383" precision="I64">
					<dim>1</dim>
				</port>
			</output>
		</layer>
		<layer id="150" name="384" type="Concat" version="opset1">
			<data axis="0"/>
			<input>
				<port id="0">
					<dim>1</dim>
				</port>
				<port id="1">
					<dim>1</dim>
				</port>
				<port id="2">
					<dim>1</dim>
				</port>
			</input>
			<output>
				<port id="3" names="384" precision="I64">
					<dim>3</dim>
				</port>
			</output>
		</layer>
		<layer id="151" name="385" type="Reshape" version="opset1">
			<data special_zero="true"/>
			<input>
				<port id="0">
					<dim>8</dim>
					<dim>16</dim>
					<dim>512</dim>
				</port>
				<port id="1">
					<dim>3</dim>
				</port>
			</input>
			<output>
				<port id="2" names="385" precision="FP32">
					<dim>8</dim>
					<dim>16</dim>
					<dim>512</dim>
				</port>
			</output>
		</layer>
		<layer id="152" name="226/Output_0/Data__const" type="Const" version="opset1">
			<data element_type="f32" offset="8427972" shape="8,512,64" size="1048576"/>
			<output>
				<port id="0" names="226" precision="FP32">
					<dim>8</dim>
					<dim>512</dim>
					<dim>64</dim>
				</port>
			</output>
		</layer>
		<layer id="153" name="403" type="MatMul" version="opset1">
			<data transpose_a="false" transpose_b="false"/>
			<input>
				<port id="0">
					<dim>8</dim>
					<dim>16</dim>
					<dim>512</dim>
				</port>
				<port id="1">
					<dim>8</dim>
					<dim>512</dim>
					<dim>64</dim>
				</port>
			</input>
			<output>
				<port id="2" names="403" precision="FP32">
					<dim>8</dim>
					<dim>16</dim>
					<dim>64</dim>
				</port>
			</output>
		</layer>
		<layer id="154" name="406/Unsqueeze/Output_0/Data__const" type="Const" version="opset1">
			<data element_type="i64" offset="32800" shape="1" size="8"/>
			<output>
				<port id="0" names="406" precision="I64">
					<dim>1</dim>
				</port>
			</output>
		</layer>
		<layer id="155" name="360" type="ShapeOf" version="opset3">
			<data output_type="i64"/>
			<input>
				<port id="0">
					<dim>1</dim>
					<dim>16</dim>
					<dim>512</dim>
				</port>
			</input>
			<output>
				<port id="1" names="360" precision="I64">
					<dim>3</dim>
				</port>
			</output>
		</layer>
		<layer id="156" name="361945/Cast_116060_const" type="Const" version="opset1">
			<data element_type="i32" offset="1081396" shape="" size="4"/>
			<output>
				<port id="0" names="359" precision="I32"/>
			</output>
		</layer>
		<layer id="157" name="361945/Cast_216062_const" type="Const" version="opset1">
			<data element_type="i64" offset="32812" shape="" size="8"/>
			<output>
				<port id="0" precision="I64"/>
			</output>
		</layer>
		<layer id="158" name="361945" type="Gather" version="opset1">
			<input>
				<port id="0">
					<dim>3</dim>
				</port>
				<port id="1"/>
				<port id="2"/>
			</input>
			<output>
				<port id="3" names="361" precision="I64"/>
			</output>
		</layer>
		<layer id="159" name="407/Dims/Output_0/Data__const" type="Const" version="opset1">
			<data element_type="i64" offset="32812" shape="1" size="8"/>
			<output>
				<port id="0" precision="I64">
					<dim>1</dim>
				</port>
			</output>
		</layer>
		<layer id="160" name="407/Unsqueeze" type="Unsqueeze" version="opset1">
			<input>
				<port id="0"/>
				<port id="1">
					<dim>1</dim>
				</port>
			</input>
			<output>
				<port id="2" names="407" precision="I64">
					<dim>1</dim>
				</port>
			</output>
		</layer>
		<layer id="161" name="408/Unsqueeze/Output_0/Data__const" type="Const" version="opset1">
			<data element_type="i64" offset="1081400" shape="1" size="8"/>
			<output>
				<port id="0" names="408" precision="I64">
					<dim>1</dim>
				</port>
			</output>
		</layer>
		<layer id="162" name="409" type="Concat" version="opset1">
			<data axis="0"/>
			<input>
				<port id="0">
					<dim>1</dim>
				</port>
				<port id="1">
					<dim>1</dim>
				</port>
				<port id="2">
					<dim>1</dim>
				</port>
			</input>
			<output>
				<port id="3" names="409" precision="I64">
					<dim>3</dim>
				</port>
			</output>
		</layer>
		<layer id="163" name="410" type="Reshape" version="opset1">
			<data special_zero="true"/>
			<input>
				<port id="0">
					<dim>8</dim>
					<dim>16</dim>
					<dim>64</dim>
				</port>
				<port id="1">
					<dim>3</dim>
				</port>
			</input>
			<output>
				<port id="2" names="410" precision="FP32">
					<dim>8</dim>
					<dim>16</dim>
					<dim>64</dim>
				</port>
			</output>
		</layer>
		<layer id="164" name="419/Cast_116192_const" type="Const" version="opset1">
			<data element_type="i64" offset="2129984" shape="3" size="24"/>
			<output>
				<port id="0" precision="I64">
					<dim>3</dim>
				</port>
			</output>
		</layer>
		<layer id="165" name="419" type="Transpose" version="opset1">
			<input>
				<port id="0">
					<dim>8</dim>
					<dim>16</dim>
					<dim>64</dim>
				</port>
				<port id="1">
					<dim>3</dim>
				</port>
			</input>
			<output>
				<port id="2" precision="FP32">
					<dim>8</dim>
					<dim>64</dim>
					<dim>16</dim>
				</port>
			</output>
		</layer>
		<layer id="166" name="422_copy/const75158386/EltwiseUnsqueeze8396_const" type="Const" version="opset1">
			<data element_type="f32" offset="2130008" shape="1,64,1" size="256"/>
			<output>
				<port id="0" precision="FP32">
					<dim>1</dim>
					<dim>64</dim>
					<dim>1</dim>
				</port>
			</output>
		</layer>
		<layer id="167" name="422_copy" type="Multiply" version="opset1">
			<data auto_broadcast="numpy"/>
			<input>
				<port id="0">
					<dim>8</dim>
					<dim>64</dim>
					<dim>16</dim>
				</port>
				<port id="1">
					<dim>1</dim>
					<dim>64</dim>
					<dim>1</dim>
				</port>
			</input>
			<output>
				<port id="2" names="419" precision="FP32">
					<dim>8</dim>
					<dim>64</dim>
					<dim>16</dim>
				</port>
			</output>
		</layer>
		<layer id="168" name="420" type="MatMul" version="opset1">
			<data transpose_a="false" transpose_b="false"/>
			<input>
				<port id="0">
					<dim>8</dim>
					<dim>16</dim>
					<dim>64</dim>
				</port>
				<port id="1">
					<dim>8</dim>
					<dim>64</dim>
					<dim>16</dim>
				</port>
			</input>
			<output>
				<port id="2" names="422" precision="FP32">
					<dim>8</dim>
					<dim>16</dim>
					<dim>16</dim>
				</port>
			</output>
		</layer>
		<layer id="169" name="424" type="ShapeOf" version="opset3">
			<data output_type="i64"/>
			<input>
				<port id="0">
					<dim>8</dim>
					<dim>16</dim>
					<dim>16</dim>
				</port>
			</input>
			<output>
				<port id="1" names="424" precision="I64">
					<dim>3</dim>
				</port>
			</output>
		</layer>
		<layer id="170" name="425913/Cast_116144_const" type="Const" version="opset1">
			<data element_type="i32" offset="2130264" shape="" size="4"/>
			<output>
				<port id="0" names="423" precision="I32"/>
			</output>
		</layer>
		<layer id="171" name="425913/Cast_216146_const" type="Const" version="opset1">
			<data element_type="i64" offset="32812" shape="" size="8"/>
			<output>
				<port id="0" precision="I64"/>
			</output>
		</layer>
		<layer id="172" name="425913" type="Gather" version="opset1">
			<input>
				<port id="0">
					<dim>3</dim>
				</port>
				<port id="1"/>
				<port id="2"/>
			</input>
			<output>
				<port id="3" names="425" precision="I64"/>
			</output>
		</layer>
		<layer id="173" name="427" type="ShapeOf" version="opset3">
			<data output_type="i64"/>
			<input>
				<port id="0">
					<dim>8</dim>
					<dim>16</dim>
					<dim>16</dim>
				</port>
			</input>
			<output>
				<port id="1" names="427" precision="I64">
					<dim>3</dim>
				</port>
			</output>
		</layer>
		<layer id="174" name="428937/Cast_116134_const" type="Const" version="opset1">
			<data element_type="i32" offset="1081396" shape="" size="4"/>
			<output>
				<port id="0" names="426" precision="I32"/>
			</output>
		</layer>
		<layer id="175" name="428937/Cast_216136_const" type="Const" version="opset1">
			<data element_type="i64" offset="32812" shape="" size="8"/>
			<output>
				<port id="0" precision="I64"/>
			</output>
		</layer>
		<layer id="176" name="428937" type="Gather" version="opset1">
			<input>
				<port id="0">
					<dim>3</dim>
				</port>
				<port id="1"/>
				<port id="2"/>
			</input>
			<output>
				<port id="3" names="428" precision="I64"/>
			</output>
		</layer>
		<layer id="177" name="429" type="Multiply" version="opset1">
			<data auto_broadcast="numpy"/>
			<input>
				<port id="0"/>
				<port id="1"/>
			</input>
			<output>
				<port id="2" names="429" precision="I64"/>
			</output>
		</layer>
		<layer id="178" name="431/Dims/Output_0/Data__const" type="Const" version="opset1">
			<data element_type="i64" offset="32812" shape="1" size="8"/>
			<output>
				<port id="0" precision="I64">
					<dim>1</dim>
				</port>
			</output>
		</layer>
		<layer id="179" name="431/Unsqueeze" type="Unsqueeze" version="opset1">
			<input>
				<port id="0"/>
				<port id="1">
					<dim>1</dim>
				</port>
			</input>
			<output>
				<port id="2" names="431" precision="I64">
					<dim>1</dim>
				</port>
			</output>
		</layer>
		<layer id="180" name="432/Unsqueeze/Output_0/Data__const" type="Const" version="opset1">
			<data element_type="i64" offset="32800" shape="1" size="8"/>
			<output>
				<port id="0" names="432" precision="I64">
					<dim>1</dim>
				</port>
			</output>
		</layer>
		<layer id="181" name="433" type="Concat" version="opset1">
			<data axis="0"/>
			<input>
				<port id="0">
					<dim>1</dim>
				</port>
				<port id="1">
					<dim>1</dim>
				</port>
			</input>
			<output>
				<port id="2" names="433" precision="I64">
					<dim>2</dim>
				</port>
			</output>
		</layer>
		<layer id="182" name="434" type="Reshape" version="opset1">
			<data special_zero="true"/>
			<input>
				<port id="0">
					<dim>8</dim>
					<dim>16</dim>
					<dim>16</dim>
				</port>
				<port id="1">
					<dim>2</dim>
				</port>
			</input>
			<output>
				<port id="2" names="434" precision="FP32">
					<dim>128</dim>
					<dim>16</dim>
				</port>
			</output>
		</layer>
		<layer id="183" name="435/FlattenONNX_/Reshape/Cast_116118_const" type="Const" version="opset1">
			<data element_type="i64" offset="2130268" shape="2" size="16"/>
			<output>
				<port id="0" precision="I64">
					<dim>2</dim>
				</port>
			</output>
		</layer>
		<layer id="184" name="435/FlattenONNX_/Reshape" type="Reshape" version="opset1">
			<data special_zero="true"/>
			<input>
				<port id="0">
					<dim>128</dim>
					<dim>16</dim>
				</port>
				<port id="1">
					<dim>2</dim>
				</port>
			</input>
			<output>
				<port id="2" precision="FP32">
					<dim>128</dim>
					<dim>16</dim>
				</port>
			</output>
		</layer>
		<layer id="185" name="435/Softmax_" type="SoftMax" version="opset1">
			<data axis="1"/>
			<input>
				<port id="0">
					<dim>128</dim>
					<dim>16</dim>
				</port>
			</input>
			<output>
				<port id="1" precision="FP32">
					<dim>128</dim>
					<dim>16</dim>
				</port>
			</output>
		</layer>
		<layer id="186" name="435/ShapeOf_" type="ShapeOf" version="opset3">
			<data output_type="i64"/>
			<input>
				<port id="0">
					<dim>128</dim>
					<dim>16</dim>
				</port>
			</input>
			<output>
				<port id="1" precision="I64">
					<dim>2</dim>
				</port>
			</output>
		</layer>
		<layer id="187" name="435" type="Reshape" version="opset1">
			<data special_zero="true"/>
			<input>
				<port id="0">
					<dim>128</dim>
					<dim>16</dim>
				</port>
				<port id="1">
					<dim>2</dim>
				</port>
			</input>
			<output>
				<port id="2" names="435" precision="FP32">
					<dim>128</dim>
					<dim>16</dim>
				</port>
			</output>
		</layer>
		<layer id="188" name="437/Dims/Output_0/Data__const" type="Const" version="opset1">
			<data element_type="i64" offset="32812" shape="1" size="8"/>
			<output>
				<port id="0" precision="I64">
					<dim>1</dim>
				</port>
			</output>
		</layer>
		<layer id="189" name="437/Unsqueeze" type="Unsqueeze" version="opset1">
			<input>
				<port id="0"/>
				<port id="1">
					<dim>1</dim>
				</port>
			</input>
			<output>
				<port id="2" names="437" precision="I64">
					<dim>1</dim>
				</port>
			</output>
		</layer>
		<layer id="190" name="438/Dims/Output_0/Data__const" type="Const" version="opset1">
			<data element_type="i64" offset="32812" shape="1" size="8"/>
			<output>
				<port id="0" precision="I64">
					<dim>1</dim>
				</port>
			</output>
		</layer>
		<layer id="191" name="438/Unsqueeze" type="Unsqueeze" version="opset1">
			<input>
				<port id="0"/>
				<port id="1">
					<dim>1</dim>
				</port>
			</input>
			<output>
				<port id="2" names="438" precision="I64">
					<dim>1</dim>
				</port>
			</output>
		</layer>
		<layer id="192" name="439/Unsqueeze/Output_0/Data__const" type="Const" version="opset1">
			<data element_type="i64" offset="32800" shape="1" size="8"/>
			<output>
				<port id="0" names="439" precision="I64">
					<dim>1</dim>
				</port>
			</output>
		</layer>
		<layer id="193" name="440" type="Concat" version="opset1">
			<data axis="0"/>
			<input>
				<port id="0">
					<dim>1</dim>
				</port>
				<port id="1">
					<dim>1</dim>
				</port>
				<port id="2">
					<dim>1</dim>
				</port>
			</input>
			<output>
				<port id="3" names="440" precision="I64">
					<dim>3</dim>
				</port>
			</output>
		</layer>
		<layer id="194" name="441" type="Reshape" version="opset1">
			<data special_zero="true"/>
			<input>
				<port id="0">
					<dim>128</dim>
					<dim>16</dim>
				</port>
				<port id="1">
					<dim>3</dim>
				</port>
			</input>
			<output>
				<port id="2" names="442,441" precision="FP32">
					<dim>8</dim>
					<dim>16</dim>
					<dim>16</dim>
				</port>
			</output>
		</layer>
		<layer id="195" name="386/Output_0/Data__const" type="Const" version="opset1">
			<data element_type="i64" offset="32768" shape="3" size="24"/>
			<output>
				<port id="0" names="386" precision="I64">
					<dim>3</dim>
				</port>
			</output>
		</layer>
		<layer id="196" name="387" type="Tile" version="opset1">
			<input>
				<port id="0">
					<dim>1</dim>
					<dim>16</dim>
					<dim>512</dim>
				</port>
				<port id="1">
					<dim>3</dim>
				</port>
			</input>
			<output>
				<port id="2" names="387" precision="FP32">
					<dim>8</dim>
					<dim>16</dim>
					<dim>512</dim>
				</port>
			</output>
		</layer>
		<layer id="197" name="390/Unsqueeze/Output_0/Data__const" type="Const" version="opset1">
			<data element_type="i64" offset="32792" shape="1" size="8"/>
			<output>
				<port id="0" names="390" precision="I64">
					<dim>1</dim>
				</port>
			</output>
		</layer>
		<layer id="198" name="391/Unsqueeze/Output_0/Data__const" type="Const" version="opset1">
			<data element_type="i64" offset="32800" shape="1" size="8"/>
			<output>
				<port id="0" names="391" precision="I64">
					<dim>1</dim>
				</port>
			</output>
		</layer>
		<layer id="199" name="392/Dims/Output_0/Data__const" type="Const" version="opset1">
			<data element_type="i64" offset="32812" shape="1" size="8"/>
			<output>
				<port id="0" precision="I64">
					<dim>1</dim>
				</port>
			</output>
		</layer>
		<layer id="200" name="392/Unsqueeze" type="Unsqueeze" version="opset1">
			<input>
				<port id="0"/>
				<port id="1">
					<dim>1</dim>
				</port>
			</input>
			<output>
				<port id="2" names="392" precision="I64">
					<dim>1</dim>
				</port>
			</output>
		</layer>
		<layer id="201" name="393" type="Concat" version="opset1">
			<data axis="0"/>
			<input>
				<port id="0">
					<dim>1</dim>
				</port>
				<port id="1">
					<dim>1</dim>
				</port>
				<port id="2">
					<dim>1</dim>
				</port>
			</input>
			<output>
				<port id="3" names="393" precision="I64">
					<dim>3</dim>
				</port>
			</output>
		</layer>
		<layer id="202" name="394" type="Reshape" version="opset1">
			<data special_zero="true"/>
			<input>
				<port id="0">
					<dim>8</dim>
					<dim>16</dim>
					<dim>512</dim>
				</port>
				<port id="1">
					<dim>3</dim>
				</port>
			</input>
			<output>
				<port id="2" names="394" precision="FP32">
					<dim>8</dim>
					<dim>16</dim>
					<dim>512</dim>
				</port>
			</output>
		</layer>
		<layer id="203" name="227/Output_0/Data__const" type="Const" version="opset1">
			<data element_type="f32" offset="9476548" shape="8,512,64" size="1048576"/>
			<output>
				<port id="0" names="227" precision="FP32">
					<dim>8</dim>
					<dim>512</dim>
					<dim>64</dim>
				</port>
			</output>
		</layer>
		<layer id="204" name="411" type="MatMul" version="opset1">
			<data transpose_a="false" transpose_b="false"/>
			<input>
				<port id="0">
					<dim>8</dim>
					<dim>16</dim>
					<dim>512</dim>
				</port>
				<port id="1">
					<dim>8</dim>
					<dim>512</dim>
					<dim>64</dim>
				</port>
			</input>
			<output>
				<port id="2" names="411" precision="FP32">
					<dim>8</dim>
					<dim>16</dim>
					<dim>64</dim>
				</port>
			</output>
		</layer>
		<layer id="205" name="414/Unsqueeze/Output_0/Data__const" type="Const" version="opset1">
			<data element_type="i64" offset="32800" shape="1" size="8"/>
			<output>
				<port id="0" names="414" precision="I64">
					<dim>1</dim>
				</port>
			</output>
		</layer>
		<layer id="206" name="363" type="ShapeOf" version="opset3">
			<data output_type="i64"/>
			<input>
				<port id="0">
					<dim>1</dim>
					<dim>16</dim>
					<dim>512</dim>
				</port>
			</input>
			<output>
				<port id="1" names="363" precision="I64">
					<dim>3</dim>
				</port>
			</output>
		</layer>
		<layer id="207" name="364947/Cast_116066_const" type="Const" version="opset1">
			<data element_type="i32" offset="1081396" shape="" size="4"/>
			<output>
				<port id="0" names="362" precision="I32"/>
			</output>
		</layer>
		<layer id="208" name="364947/Cast_216068_const" type="Const" version="opset1">
			<data element_type="i64" offset="32812" shape="" size="8"/>
			<output>
				<port id="0" precision="I64"/>
			</output>
		</layer>
		<layer id="209" name="364947" type="Gather" version="opset1">
			<input>
				<port id="0">
					<dim>3</dim>
				</port>
				<port id="1"/>
				<port id="2"/>
			</input>
			<output>
				<port id="3" names="364" precision="I64"/>
			</output>
		</layer>
		<layer id="210" name="415/Dims/Output_0/Data__const" type="Const" version="opset1">
			<data element_type="i64" offset="32812" shape="1" size="8"/>
			<output>
				<port id="0" precision="I64">
					<dim>1</dim>
				</port>
			</output>
		</layer>
		<layer id="211" name="415/Unsqueeze" type="Unsqueeze" version="opset1">
			<input>
				<port id="0"/>
				<port id="1">
					<dim>1</dim>
				</port>
			</input>
			<output>
				<port id="2" names="415" precision="I64">
					<dim>1</dim>
				</port>
			</output>
		</layer>
		<layer id="212" name="416/Unsqueeze/Output_0/Data__const" type="Const" version="opset1">
			<data element_type="i64" offset="1081400" shape="1" size="8"/>
			<output>
				<port id="0" names="416" precision="I64">
					<dim>1</dim>
				</port>
			</output>
		</layer>
		<layer id="213" name="417" type="Concat" version="opset1">
			<data axis="0"/>
			<input>
				<port id="0">
					<dim>1</dim>
				</port>
				<port id="1">
					<dim>1</dim>
				</port>
				<port id="2">
					<dim>1</dim>
				</port>
			</input>
			<output>
				<port id="3" names="417" precision="I64">
					<dim>3</dim>
				</port>
			</output>
		</layer>
		<layer id="214" name="418" type="Reshape" version="opset1">
			<data special_zero="true"/>
			<input>
				<port id="0">
					<dim>8</dim>
					<dim>16</dim>
					<dim>64</dim>
				</port>
				<port id="1">
					<dim>3</dim>
				</port>
			</input>
			<output>
				<port id="2" names="418" precision="FP32">
					<dim>8</dim>
					<dim>16</dim>
					<dim>64</dim>
				</port>
			</output>
		</layer>
		<layer id="215" name="444" type="MatMul" version="opset1">
			<data transpose_a="false" transpose_b="false"/>
			<input>
				<port id="0">
					<dim>8</dim>
					<dim>16</dim>
					<dim>16</dim>
				</port>
				<port id="1">
					<dim>8</dim>
					<dim>16</dim>
					<dim>64</dim>
				</port>
			</input>
			<output>
				<port id="2" names="444" precision="FP32">
					<dim>8</dim>
					<dim>16</dim>
					<dim>64</dim>
				</port>
			</output>
		</layer>
		<layer id="216" name="446/Cast_116012_const" type="Const" version="opset1">
			<data element_type="i64" offset="3178860" shape="4" size="32"/>
			<output>
				<port id="0" names="445" precision="I64">
					<dim>4</dim>
				</port>
			</output>
		</layer>
		<layer id="217" name="446" type="Reshape" version="opset1">
			<data special_zero="true"/>
			<input>
				<port id="0">
					<dim>8</dim>
					<dim>16</dim>
					<dim>64</dim>
				</port>
				<port id="1">
					<dim>4</dim>
				</port>
			</input>
			<output>
				<port id="2" names="446" precision="FP32">
					<dim>8</dim>
					<dim>1</dim>
					<dim>16</dim>
					<dim>64</dim>
				</port>
			</output>
		</layer>
		<layer id="218" name="447/Cast_115970_const" type="Const" version="opset1">
			<data element_type="i64" offset="3178892" shape="4" size="32"/>
			<output>
				<port id="0" precision="I64">
					<dim>4</dim>
				</port>
			</output>
		</layer>
		<layer id="219" name="447" type="Transpose" version="opset1">
			<input>
				<port id="0">
					<dim>8</dim>
					<dim>1</dim>
					<dim>16</dim>
					<dim>64</dim>
				</port>
				<port id="1">
					<dim>4</dim>
				</port>
			</input>
			<output>
				<port id="2" names="447" precision="FP32">
					<dim>1</dim>
					<dim>16</dim>
					<dim>8</dim>
					<dim>64</dim>
				</port>
			</output>
		</layer>
		<layer id="220" name="449/Cast_116174_const" type="Const" version="opset1">
			<data element_type="i64" offset="3178924" shape="3" size="24"/>
			<output>
				<port id="0" names="448" precision="I64">
					<dim>3</dim>
				</port>
			</output>
		</layer>
		<layer id="221" name="449" type="Reshape" version="opset1">
			<data special_zero="true"/>
			<input>
				<port id="0">
					<dim>1</dim>
					<dim>16</dim>
					<dim>8</dim>
					<dim>64</dim>
				</port>
				<port id="1">
					<dim>3</dim>
				</port>
			</input>
			<output>
				<port id="2" names="450,449" precision="FP32">
					<dim>1</dim>
					<dim>16</dim>
					<dim>512</dim>
				</port>
			</output>
		</layer>
		<layer id="222" name="452" type="Add" version="opset1">
			<data auto_broadcast="numpy"/>
			<input>
				<port id="0">
					<dim>1</dim>
					<dim>16</dim>
					<dim>512</dim>
				</port>
				<port id="1">
					<dim>1</dim>
					<dim>16</dim>
					<dim>512</dim>
				</port>
			</input>
			<output>
				<port id="2" names="452" precision="FP32">
					<dim>1</dim>
					<dim>16</dim>
					<dim>512</dim>
				</port>
			</output>
		</layer>
		<layer id="223" name="453/Cast_115986_const" type="Const" version="opset1">
			<data element_type="i64" offset="2129984" shape="3" size="24"/>
			<output>
				<port id="0" precision="I64">
					<dim>3</dim>
				</port>
			</output>
		</layer>
		<layer id="224" name="453" type="Transpose" version="opset1">
			<input>
				<port id="0">
					<dim>1</dim>
					<dim>16</dim>
					<dim>512</dim>
				</port>
				<port id="1">
					<dim>3</dim>
				</port>
			</input>
			<output>
				<port id="2" names="453" precision="FP32">
					<dim>1</dim>
					<dim>512</dim>
					<dim>16</dim>
				</port>
			</output>
		</layer>
		<layer id="225" name="228/Output_0/Data__const" type="Const" version="opset1">
			<data element_type="f32" offset="10525124" shape="1024,512,1" size="2097152"/>
			<output>
				<port id="0" names="228" precision="FP32">
					<dim>1024</dim>
					<dim>512</dim>
					<dim>1</dim>
				</port>
			</output>
		</layer>
		<layer id="226" name="454/WithoutBiases" type="Convolution" version="opset1">
			<data auto_pad="explicit" dilations="1" pads_begin="0" pads_end="0" strides="1"/>
			<input>
				<port id="0">
					<dim>1</dim>
					<dim>512</dim>
					<dim>16</dim>
				</port>
				<port id="1">
					<dim>1024</dim>
					<dim>512</dim>
					<dim>1</dim>
				</port>
			</input>
			<output>
				<port id="2" precision="FP32">
					<dim>1</dim>
					<dim>1024</dim>
					<dim>16</dim>
				</port>
			</output>
		</layer>
		<layer id="227" name="454/Dims46147231/EltwiseUnsqueeze7272_const" type="Const" version="opset1">
			<data element_type="f32" offset="12622276" shape="1,1024,1" size="4096"/>
			<output>
				<port id="0" precision="FP32">
					<dim>1</dim>
					<dim>1024</dim>
					<dim>1</dim>
				</port>
			</output>
		</layer>
		<layer id="228" name="454" type="Add" version="opset1">
			<data auto_broadcast="numpy"/>
			<input>
				<port id="0">
					<dim>1</dim>
					<dim>1024</dim>
					<dim>16</dim>
				</port>
				<port id="1">
					<dim>1</dim>
					<dim>1024</dim>
					<dim>1</dim>
				</port>
			</input>
			<output>
				<port id="2" names="454" precision="FP32">
					<dim>1</dim>
					<dim>1024</dim>
					<dim>16</dim>
				</port>
			</output>
		</layer>
		<layer id="229" name="455" type="ReLU" version="opset1">
			<input>
				<port id="0">
					<dim>1</dim>
					<dim>1024</dim>
					<dim>16</dim>
				</port>
			</input>
			<output>
				<port id="1" names="455" precision="FP32">
					<dim>1</dim>
					<dim>1024</dim>
					<dim>16</dim>
				</port>
			</output>
		</layer>
		<layer id="230" name="230/Output_0/Data__const" type="Const" version="opset1">
			<data element_type="f32" offset="12626372" shape="512,1024,1" size="2097152"/>
			<output>
				<port id="0" names="230" precision="FP32">
					<dim>512</dim>
					<dim>1024</dim>
					<dim>1</dim>
				</port>
			</output>
		</layer>
		<layer id="231" name="456/WithoutBiases" type="Convolution" version="opset1">
			<data auto_pad="explicit" dilations="1" pads_begin="0" pads_end="0" strides="1"/>
			<input>
				<port id="0">
					<dim>1</dim>
					<dim>1024</dim>
					<dim>16</dim>
				</port>
				<port id="1">
					<dim>512</dim>
					<dim>1024</dim>
					<dim>1</dim>
				</port>
			</input>
			<output>
				<port id="2" precision="FP32">
					<dim>1</dim>
					<dim>512</dim>
					<dim>16</dim>
				</port>
			</output>
		</layer>
		<layer id="232" name="456/Dims45967228/EltwiseUnsqueeze7260_const" type="Const" version="opset1">
			<data element_type="f32" offset="14723524" shape="1,512,1" size="2048"/>
			<output>
				<port id="0" precision="FP32">
					<dim>1</dim>
					<dim>512</dim>
					<dim>1</dim>
				</port>
			</output>
		</layer>
		<layer id="233" name="456" type="Add" version="opset1">
			<data auto_broadcast="numpy"/>
			<input>
				<port id="0">
					<dim>1</dim>
					<dim>512</dim>
					<dim>16</dim>
				</port>
				<port id="1">
					<dim>1</dim>
					<dim>512</dim>
					<dim>1</dim>
				</port>
			</input>
			<output>
				<port id="2" names="456" precision="FP32">
					<dim>1</dim>
					<dim>512</dim>
					<dim>16</dim>
				</port>
			</output>
		</layer>
		<layer id="234" name="457/Cast_116138_const" type="Const" version="opset1">
			<data element_type="i64" offset="2129984" shape="3" size="24"/>
			<output>
				<port id="0" precision="I64">
					<dim>3</dim>
				</port>
			</output>
		</layer>
		<layer id="235" name="457" type="Transpose" version="opset1">
			<input>
				<port id="0">
					<dim>1</dim>
					<dim>512</dim>
					<dim>16</dim>
				</port>
				<port id="1">
					<dim>3</dim>
				</port>
			</input>
			<output>
				<port id="2" names="458,457" precision="FP32">
					<dim>1</dim>
					<dim>16</dim>
					<dim>512</dim>
				</port>
			</output>
		</layer>
		<layer id="236" name="460" type="Add" version="opset1">
			<data auto_broadcast="numpy"/>
			<input>
				<port id="0">
					<dim>1</dim>
					<dim>16</dim>
					<dim>512</dim>
				</port>
				<port id="1">
					<dim>1</dim>
					<dim>16</dim>
					<dim>512</dim>
				</port>
			</input>
			<output>
				<port id="2" names="460" precision="FP32">
					<dim>1</dim>
					<dim>16</dim>
					<dim>512</dim>
				</port>
			</output>
		</layer>
		<layer id="237" name="473/Output_0/Data__const" type="Const" version="opset1">
			<data element_type="i64" offset="32768" shape="3" size="24"/>
			<output>
				<port id="0" names="473" precision="I64">
					<dim>3</dim>
				</port>
			</output>
		</layer>
		<layer id="238" name="474" type="Tile" version="opset1">
			<input>
				<port id="0">
					<dim>1</dim>
					<dim>16</dim>
					<dim>512</dim>
				</port>
				<port id="1">
					<dim>3</dim>
				</port>
			</input>
			<output>
				<port id="2" names="474" precision="FP32">
					<dim>8</dim>
					<dim>16</dim>
					<dim>512</dim>
				</port>
			</output>
		</layer>
		<layer id="239" name="477/Unsqueeze/Output_0/Data__const" type="Const" version="opset1">
			<data element_type="i64" offset="32792" shape="1" size="8"/>
			<output>
				<port id="0" names="477" precision="I64">
					<dim>1</dim>
				</port>
			</output>
		</layer>
		<layer id="240" name="478/Unsqueeze/Output_0/Data__const" type="Const" version="opset1">
			<data element_type="i64" offset="32800" shape="1" size="8"/>
			<output>
				<port id="0" names="478" precision="I64">
					<dim>1</dim>
				</port>
			</output>
		</layer>
		<layer id="241" name="471" type="ShapeOf" version="opset3">
			<data output_type="i64"/>
			<input>
				<port id="0">
					<dim>1</dim>
					<dim>16</dim>
					<dim>512</dim>
				</port>
			</input>
			<output>
				<port id="1" names="471" precision="I64">
					<dim>3</dim>
				</port>
			</output>
		</layer>
		<layer id="242" name="472905/Cast_115988_const" type="Const" version="opset1">
			<data element_type="i32" offset="32808" shape="" size="4"/>
			<output>
				<port id="0" names="470" precision="I32"/>
			</output>
		</layer>
		<layer id="243" name="472905/Cast_215990_const" type="Const" version="opset1">
			<data element_type="i64" offset="32812" shape="" size="8"/>
			<output>
				<port id="0" precision="I64"/>
			</output>
		</layer>
		<layer id="244" name="472905" type="Gather" version="opset1">
			<input>
				<port id="0">
					<dim>3</dim>
				</port>
				<port id="1"/>
				<port id="2"/>
			</input>
			<output>
				<port id="3" names="472" precision="I64"/>
			</output>
		</layer>
		<layer id="245" name="479/Dims/Output_0/Data__const" type="Const" version="opset1">
			<data element_type="i64" offset="32812" shape="1" size="8"/>
			<output>
				<port id="0" precision="I64">
					<dim>1</dim>
				</port>
			</output>
		</layer>
		<layer id="246" name="479/Unsqueeze" type="Unsqueeze" version="opset1">
			<input>
				<port id="0"/>
				<port id="1">
					<dim>1</dim>
				</port>
			</input>
			<output>
				<port id="2" names="479" precision="I64">
					<dim>1</dim>
				</port>
			</output>
		</layer>
		<layer id="247" name="480" type="Concat" version="opset1">
			<data axis="0"/>
			<input>
				<port id="0">
					<dim>1</dim>
				</port>
				<port id="1">
					<dim>1</dim>
				</port>
				<port id="2">
					<dim>1</dim>
				</port>
			</input>
			<output>
				<port id="3" names="480" precision="I64">
					<dim>3</dim>
				</port>
			</output>
		</layer>
		<layer id="248" name="481" type="Reshape" version="opset1">
			<data special_zero="true"/>
			<input>
				<port id="0">
					<dim>8</dim>
					<dim>16</dim>
					<dim>512</dim>
				</port>
				<port id="1">
					<dim>3</dim>
				</port>
			</input>
			<output>
				<port id="2" names="481" precision="FP32">
					<dim>8</dim>
					<dim>16</dim>
					<dim>512</dim>
				</port>
			</output>
		</layer>
		<layer id="249" name="232/Output_0/Data__const" type="Const" version="opset1">
			<data element_type="f32" offset="14725572" shape="8,512,64" size="1048576"/>
			<output>
				<port id="0" names="232" precision="FP32">
					<dim>8</dim>
					<dim>512</dim>
					<dim>64</dim>
				</port>
			</output>
		</layer>
		<layer id="250" name="500" type="MatMul" version="opset1">
			<data transpose_a="false" transpose_b="false"/>
			<input>
				<port id="0">
					<dim>8</dim>
					<dim>16</dim>
					<dim>512</dim>
				</port>
				<port id="1">
					<dim>8</dim>
					<dim>512</dim>
					<dim>64</dim>
				</port>
			</input>
			<output>
				<port id="2" names="500" precision="FP32">
					<dim>8</dim>
					<dim>16</dim>
					<dim>64</dim>
				</port>
			</output>
		</layer>
		<layer id="251" name="503/Unsqueeze/Output_0/Data__const" type="Const" version="opset1">
			<data element_type="i64" offset="32800" shape="1" size="8"/>
			<output>
				<port id="0" names="503" precision="I64">
					<dim>1</dim>
				</port>
			</output>
		</layer>
		<layer id="252" name="462" type="ShapeOf" version="opset3">
			<data output_type="i64"/>
			<input>
				<port id="0">
					<dim>1</dim>
					<dim>16</dim>
					<dim>512</dim>
				</port>
			</input>
			<output>
				<port id="1" names="462" precision="I64">
					<dim>3</dim>
				</port>
			</output>
		</layer>
		<layer id="253" name="463903/Cast_116112_const" type="Const" version="opset1">
			<data element_type="i32" offset="1081396" shape="" size="4"/>
			<output>
				<port id="0" names="461" precision="I32"/>
			</output>
		</layer>
		<layer id="254" name="463903/Cast_216114_const" type="Const" version="opset1">
			<data element_type="i64" offset="32812" shape="" size="8"/>
			<output>
				<port id="0" precision="I64"/>
			</output>
		</layer>
		<layer id="255" name="463903" type="Gather" version="opset1">
			<input>
				<port id="0">
					<dim>3</dim>
				</port>
				<port id="1"/>
				<port id="2"/>
			</input>
			<output>
				<port id="3" names="463" precision="I64"/>
			</output>
		</layer>
		<layer id="256" name="504/Dims/Output_0/Data__const" type="Const" version="opset1">
			<data element_type="i64" offset="32812" shape="1" size="8"/>
			<output>
				<port id="0" precision="I64">
					<dim>1</dim>
				</port>
			</output>
		</layer>
		<layer id="257" name="504/Unsqueeze" type="Unsqueeze" version="opset1">
			<input>
				<port id="0"/>
				<port id="1">
					<dim>1</dim>
				</port>
			</input>
			<output>
				<port id="2" names="504" precision="I64">
					<dim>1</dim>
				</port>
			</output>
		</layer>
		<layer id="258" name="505/Unsqueeze/Output_0/Data__const" type="Const" version="opset1">
			<data element_type="i64" offset="1081400" shape="1" size="8"/>
			<output>
				<port id="0" names="505" precision="I64">
					<dim>1</dim>
				</port>
			</output>
		</layer>
		<layer id="259" name="506" type="Concat" version="opset1">
			<data axis="0"/>
			<input>
				<port id="0">
					<dim>1</dim>
				</port>
				<port id="1">
					<dim>1</dim>
				</port>
				<port id="2">
					<dim>1</dim>
				</port>
			</input>
			<output>
				<port id="3" names="506" precision="I64">
					<dim>3</dim>
				</port>
			</output>
		</layer>
		<layer id="260" name="507" type="Reshape" version="opset1">
			<data special_zero="true"/>
			<input>
				<port id="0">
					<dim>8</dim>
					<dim>16</dim>
					<dim>64</dim>
				</port>
				<port id="1">
					<dim>3</dim>
				</port>
			</input>
			<output>
				<port id="2" names="507" precision="FP32">
					<dim>8</dim>
					<dim>16</dim>
					<dim>64</dim>
				</port>
			</output>
		</layer>
		<layer id="261" name="482/Output_0/Data__const" type="Const" version="opset1">
			<data element_type="i64" offset="32768" shape="3" size="24"/>
			<output>
				<port id="0" names="482" precision="I64">
					<dim>3</dim>
				</port>
			</output>
		</layer>
		<layer id="262" name="483" type="Tile" version="opset1">
			<input>
				<port id="0">
					<dim>1</dim>
					<dim>16</dim>
					<dim>512</dim>
				</port>
				<port id="1">
					<dim>3</dim>
				</port>
			</input>
			<output>
				<port id="2" names="483" precision="FP32">
					<dim>8</dim>
					<dim>16</dim>
					<dim>512</dim>
				</port>
			</output>
		</layer>
		<layer id="263" name="486/Unsqueeze/Output_0/Data__const" type="Const" version="opset1">
			<data element_type="i64" offset="32792" shape="1" size="8"/>
			<output>
				<port id="0" names="486" precision="I64">
					<dim>1</dim>
				</port>
			</output>
		</layer>
		<layer id="264" name="487/Unsqueeze/Output_0/Data__const" type="Const" version="opset1">
			<data element_type="i64" offset="32800" shape="1" size="8"/>
			<output>
				<port id="0" names="487" precision="I64">
					<dim>1</dim>
				</port>
			</output>
		</layer>
		<layer id="265" name="488/Dims/Output_0/Data__const" type="Const" version="opset1">
			<data element_type="i64" offset="32812" shape="1" size="8"/>
			<output>
				<port id="0" precision="I64">
					<dim>1</dim>
				</port>
			</output>
		</layer>
		<layer id="266" name="488/Unsqueeze" type="Unsqueeze" version="opset1">
			<input>
				<port id="0"/>
				<port id="1">
					<dim>1</dim>
				</port>
			</input>
			<output>
				<port id="2" names="488" precision="I64">
					<dim>1</dim>
				</port>
			</output>
		</layer>
		<layer id="267" name="489" type="Concat" version="opset1">
			<data axis="0"/>
			<input>
				<port id="0">
					<dim>1</dim>
				</port>
				<port id="1">
					<dim>1</dim>
				</port>
				<port id="2">
					<dim>1</dim>
				</port>
			</input>
			<output>
				<port id="3" names="489" precision="I64">
					<dim>3</dim>
				</port>
			</output>
		</layer>
		<layer id="268" name="490" type="Reshape" version="opset1">
			<data special_zero="true"/>
			<input>
				<port id="0">
					<dim>8</dim>
					<dim>16</dim>
					<dim>512</dim>
				</port>
				<port id="1">
					<dim>3</dim>
				</port>
			</input>
			<output>
				<port id="2" names="490" precision="FP32">
					<dim>8</dim>
					<dim>16</dim>
					<dim>512</dim>
				</port>
			</output>
		</layer>
		<layer id="269" name="233/Output_0/Data__const" type="Const" version="opset1">
			<data element_type="f32" offset="15774148" shape="8,512,64" size="1048576"/>
			<output>
				<port id="0" names="233" precision="FP32">
					<dim>8</dim>
					<dim>512</dim>
					<dim>64</dim>
				</port>
			</output>
		</layer>
		<layer id="270" name="508" type="MatMul" version="opset1">
			<data transpose_a="false" transpose_b="false"/>
			<input>
				<port id="0">
					<dim>8</dim>
					<dim>16</dim>
					<dim>512</dim>
				</port>
				<port id="1">
					<dim>8</dim>
					<dim>512</dim>
					<dim>64</dim>
				</port>
			</input>
			<output>
				<port id="2" names="508" precision="FP32">
					<dim>8</dim>
					<dim>16</dim>
					<dim>64</dim>
				</port>
			</output>
		</layer>
		<layer id="271" name="511/Unsqueeze/Output_0/Data__const" type="Const" version="opset1">
			<data element_type="i64" offset="32800" shape="1" size="8"/>
			<output>
				<port id="0" names="511" precision="I64">
					<dim>1</dim>
				</port>
			</output>
		</layer>
		<layer id="272" name="465" type="ShapeOf" version="opset3">
			<data output_type="i64"/>
			<input>
				<port id="0">
					<dim>1</dim>
					<dim>16</dim>
					<dim>512</dim>
				</port>
			</input>
			<output>
				<port id="1" names="465" precision="I64">
					<dim>3</dim>
				</port>
			</output>
		</layer>
		<layer id="273" name="466921/Cast_116164_const" type="Const" version="opset1">
			<data element_type="i32" offset="1081396" shape="" size="4"/>
			<output>
				<port id="0" names="464" precision="I32"/>
			</output>
		</layer>
		<layer id="274" name="466921/Cast_216166_const" type="Const" version="opset1">
			<data element_type="i64" offset="32812" shape="" size="8"/>
			<output>
				<port id="0" precision="I64"/>
			</output>
		</layer>
		<layer id="275" name="466921" type="Gather" version="opset1">
			<input>
				<port id="0">
					<dim>3</dim>
				</port>
				<port id="1"/>
				<port id="2"/>
			</input>
			<output>
				<port id="3" names="466" precision="I64"/>
			</output>
		</layer>
		<layer id="276" name="512/Dims/Output_0/Data__const" type="Const" version="opset1">
			<data element_type="i64" offset="32812" shape="1" size="8"/>
			<output>
				<port id="0" precision="I64">
					<dim>1</dim>
				</port>
			</output>
		</layer>
		<layer id="277" name="512/Unsqueeze" type="Unsqueeze" version="opset1">
			<input>
				<port id="0"/>
				<port id="1">
					<dim>1</dim>
				</port>
			</input>
			<output>
				<port id="2" names="512" precision="I64">
					<dim>1</dim>
				</port>
			</output>
		</layer>
		<layer id="278" name="513/Unsqueeze/Output_0/Data__const" type="Const" version="opset1">
			<data element_type="i64" offset="1081400" shape="1" size="8"/>
			<output>
				<port id="0" names="513" precision="I64">
					<dim>1</dim>
				</port>
			</output>
		</layer>
		<layer id="279" name="514" type="Concat" version="opset1">
			<data axis="0"/>
			<input>
				<port id="0">
					<dim>1</dim>
				</port>
				<port id="1">
					<dim>1</dim>
				</port>
				<port id="2">
					<dim>1</dim>
				</port>
			</input>
			<output>
				<port id="3" names="514" precision="I64">
					<dim>3</dim>
				</port>
			</output>
		</layer>
		<layer id="280" name="515" type="Reshape" version="opset1">
			<data special_zero="true"/>
			<input>
				<port id="0">
					<dim>8</dim>
					<dim>16</dim>
					<dim>64</dim>
				</port>
				<port id="1">
					<dim>3</dim>
				</port>
			</input>
			<output>
				<port id="2" names="515" precision="FP32">
					<dim>8</dim>
					<dim>16</dim>
					<dim>64</dim>
				</port>
			</output>
		</layer>
		<layer id="281" name="524/Cast_116176_const" type="Const" version="opset1">
			<data element_type="i64" offset="2129984" shape="3" size="24"/>
			<output>
				<port id="0" precision="I64">
					<dim>3</dim>
				</port>
			</output>
		</layer>
		<layer id="282" name="524" type="Transpose" version="opset1">
			<input>
				<port id="0">
					<dim>8</dim>
					<dim>16</dim>
					<dim>64</dim>
				</port>
				<port id="1">
					<dim>3</dim>
				</port>
			</input>
			<output>
				<port id="2" precision="FP32">
					<dim>8</dim>
					<dim>64</dim>
					<dim>16</dim>
				</port>
			</output>
		</layer>
		<layer id="283" name="527_copy/const75198387/EltwiseUnsqueeze8400_const" type="Const" version="opset1">
			<data element_type="f32" offset="2130008" shape="1,64,1" size="256"/>
			<output>
				<port id="0" precision="FP32">
					<dim>1</dim>
					<dim>64</dim>
					<dim>1</dim>
				</port>
			</output>
		</layer>
		<layer id="284" name="527_copy" type="Multiply" version="opset1">
			<data auto_broadcast="numpy"/>
			<input>
				<port id="0">
					<dim>8</dim>
					<dim>64</dim>
					<dim>16</dim>
				</port>
				<port id="1">
					<dim>1</dim>
					<dim>64</dim>
					<dim>1</dim>
				</port>
			</input>
			<output>
				<port id="2" names="524" precision="FP32">
					<dim>8</dim>
					<dim>64</dim>
					<dim>16</dim>
				</port>
			</output>
		</layer>
		<layer id="285" name="525" type="MatMul" version="opset1">
			<data transpose_a="false" transpose_b="false"/>
			<input>
				<port id="0">
					<dim>8</dim>
					<dim>16</dim>
					<dim>64</dim>
				</port>
				<port id="1">
					<dim>8</dim>
					<dim>64</dim>
					<dim>16</dim>
				</port>
			</input>
			<output>
				<port id="2" names="527" precision="FP32">
					<dim>8</dim>
					<dim>16</dim>
					<dim>16</dim>
				</port>
			</output>
		</layer>
		<layer id="286" name="529" type="ShapeOf" version="opset3">
			<data output_type="i64"/>
			<input>
				<port id="0">
					<dim>8</dim>
					<dim>16</dim>
					<dim>16</dim>
				</port>
			</input>
			<output>
				<port id="1" names="529" precision="I64">
					<dim>3</dim>
				</port>
			</output>
		</layer>
		<layer id="287" name="530923/Cast_116130_const" type="Const" version="opset1">
			<data element_type="i32" offset="2130264" shape="" size="4"/>
			<output>
				<port id="0" names="528" precision="I32"/>
			</output>
		</layer>
		<layer id="288" name="530923/Cast_216132_const" type="Const" version="opset1">
			<data element_type="i64" offset="32812" shape="" size="8"/>
			<output>
				<port id="0" precision="I64"/>
			</output>
		</layer>
		<layer id="289" name="530923" type="Gather" version="opset1">
			<input>
				<port id="0">
					<dim>3</dim>
				</port>
				<port id="1"/>
				<port id="2"/>
			</input>
			<output>
				<port id="3" names="530" precision="I64"/>
			</output>
		</layer>
		<layer id="290" name="532" type="ShapeOf" version="opset3">
			<data output_type="i64"/>
			<input>
				<port id="0">
					<dim>8</dim>
					<dim>16</dim>
					<dim>16</dim>
				</port>
			</input>
			<output>
				<port id="1" names="532" precision="I64">
					<dim>3</dim>
				</port>
			</output>
		</layer>
		<layer id="291" name="533917/Cast_116104_const" type="Const" version="opset1">
			<data element_type="i32" offset="1081396" shape="" size="4"/>
			<output>
				<port id="0" names="531" precision="I32"/>
			</output>
		</layer>
		<layer id="292" name="533917/Cast_216106_const" type="Const" version="opset1">
			<data element_type="i64" offset="32812" shape="" size="8"/>
			<output>
				<port id="0" precision="I64"/>
			</output>
		</layer>
		<layer id="293" name="533917" type="Gather" version="opset1">
			<input>
				<port id="0">
					<dim>3</dim>
				</port>
				<port id="1"/>
				<port id="2"/>
			</input>
			<output>
				<port id="3" names="533" precision="I64"/>
			</output>
		</layer>
		<layer id="294" name="534" type="Multiply" version="opset1">
			<data auto_broadcast="numpy"/>
			<input>
				<port id="0"/>
				<port id="1"/>
			</input>
			<output>
				<port id="2" names="534" precision="I64"/>
			</output>
		</layer>
		<layer id="295" name="536/Dims/Output_0/Data__const" type="Const" version="opset1">
			<data element_type="i64" offset="32812" shape="1" size="8"/>
			<output>
				<port id="0" precision="I64">
					<dim>1</dim>
				</port>
			</output>
		</layer>
		<layer id="296" name="536/Unsqueeze" type="Unsqueeze" version="opset1">
			<input>
				<port id="0"/>
				<port id="1">
					<dim>1</dim>
				</port>
			</input>
			<output>
				<port id="2" names="536" precision="I64">
					<dim>1</dim>
				</port>
			</output>
		</layer>
		<layer id="297" name="537/Unsqueeze/Output_0/Data__const" type="Const" version="opset1">
			<data element_type="i64" offset="32800" shape="1" size="8"/>
			<output>
				<port id="0" names="537" precision="I64">
					<dim>1</dim>
				</port>
			</output>
		</layer>
		<layer id="298" name="538" type="Concat" version="opset1">
			<data axis="0"/>
			<input>
				<port id="0">
					<dim>1</dim>
				</port>
				<port id="1">
					<dim>1</dim>
				</port>
			</input>
			<output>
				<port id="2" names="538" precision="I64">
					<dim>2</dim>
				</port>
			</output>
		</layer>
		<layer id="299" name="539" type="Reshape" version="opset1">
			<data special_zero="true"/>
			<input>
				<port id="0">
					<dim>8</dim>
					<dim>16</dim>
					<dim>16</dim>
				</port>
				<port id="1">
					<dim>2</dim>
				</port>
			</input>
			<output>
				<port id="2" names="539" precision="FP32">
					<dim>128</dim>
					<dim>16</dim>
				</port>
			</output>
		</layer>
		<layer id="300" name="540/FlattenONNX_/Reshape/Cast_116180_const" type="Const" version="opset1">
			<data element_type="i64" offset="2130268" shape="2" size="16"/>
			<output>
				<port id="0" precision="I64">
					<dim>2</dim>
				</port>
			</output>
		</layer>
		<layer id="301" name="540/FlattenONNX_/Reshape" type="Reshape" version="opset1">
			<data special_zero="true"/>
			<input>
				<port id="0">
					<dim>128</dim>
					<dim>16</dim>
				</port>
				<port id="1">
					<dim>2</dim>
				</port>
			</input>
			<output>
				<port id="2" precision="FP32">
					<dim>128</dim>
					<dim>16</dim>
				</port>
			</output>
		</layer>
		<layer id="302" name="540/Softmax_" type="SoftMax" version="opset1">
			<data axis="1"/>
			<input>
				<port id="0">
					<dim>128</dim>
					<dim>16</dim>
				</port>
			</input>
			<output>
				<port id="1" precision="FP32">
					<dim>128</dim>
					<dim>16</dim>
				</port>
			</output>
		</layer>
		<layer id="303" name="540/ShapeOf_" type="ShapeOf" version="opset3">
			<data output_type="i64"/>
			<input>
				<port id="0">
					<dim>128</dim>
					<dim>16</dim>
				</port>
			</input>
			<output>
				<port id="1" precision="I64">
					<dim>2</dim>
				</port>
			</output>
		</layer>
		<layer id="304" name="540" type="Reshape" version="opset1">
			<data special_zero="true"/>
			<input>
				<port id="0">
					<dim>128</dim>
					<dim>16</dim>
				</port>
				<port id="1">
					<dim>2</dim>
				</port>
			</input>
			<output>
				<port id="2" names="540" precision="FP32">
					<dim>128</dim>
					<dim>16</dim>
				</port>
			</output>
		</layer>
		<layer id="305" name="542/Dims/Output_0/Data__const" type="Const" version="opset1">
			<data element_type="i64" offset="32812" shape="1" size="8"/>
			<output>
				<port id="0" precision="I64">
					<dim>1</dim>
				</port>
			</output>
		</layer>
		<layer id="306" name="542/Unsqueeze" type="Unsqueeze" version="opset1">
			<input>
				<port id="0"/>
				<port id="1">
					<dim>1</dim>
				</port>
			</input>
			<output>
				<port id="2" names="542" precision="I64">
					<dim>1</dim>
				</port>
			</output>
		</layer>
		<layer id="307" name="543/Dims/Output_0/Data__const" type="Const" version="opset1">
			<data element_type="i64" offset="32812" shape="1" size="8"/>
			<output>
				<port id="0" precision="I64">
					<dim>1</dim>
				</port>
			</output>
		</layer>
		<layer id="308" name="543/Unsqueeze" type="Unsqueeze" version="opset1">
			<input>
				<port id="0"/>
				<port id="1">
					<dim>1</dim>
				</port>
			</input>
			<output>
				<port id="2" names="543" precision="I64">
					<dim>1</dim>
				</port>
			</output>
		</layer>
		<layer id="309" name="544/Unsqueeze/Output_0/Data__const" type="Const" version="opset1">
			<data element_type="i64" offset="32800" shape="1" size="8"/>
			<output>
				<port id="0" names="544" precision="I64">
					<dim>1</dim>
				</port>
			</output>
		</layer>
		<layer id="310" name="545" type="Concat" version="opset1">
			<data axis="0"/>
			<input>
				<port id="0">
					<dim>1</dim>
				</port>
				<port id="1">
					<dim>1</dim>
				</port>
				<port id="2">
					<dim>1</dim>
				</port>
			</input>
			<output>
				<port id="3" names="545" precision="I64">
					<dim>3</dim>
				</port>
			</output>
		</layer>
		<layer id="311" name="546" type="Reshape" version="opset1">
			<data special_zero="true"/>
			<input>
				<port id="0">
					<dim>128</dim>
					<dim>16</dim>
				</port>
				<port id="1">
					<dim>3</dim>
				</port>
			</input>
			<output>
				<port id="2" names="547,546" precision="FP32">
					<dim>8</dim>
					<dim>16</dim>
					<dim>16</dim>
				</port>
			</output>
		</layer>
		<layer id="312" name="491/Output_0/Data__const" type="Const" version="opset1">
			<data element_type="i64" offset="32768" shape="3" size="24"/>
			<output>
				<port id="0" names="491" precision="I64">
					<dim>3</dim>
				</port>
			</output>
		</layer>
		<layer id="313" name="492" type="Tile" version="opset1">
			<input>
				<port id="0">
					<dim>1</dim>
					<dim>16</dim>
					<dim>512</dim>
				</port>
				<port id="1">
					<dim>3</dim>
				</port>
			</input>
			<output>
				<port id="2" names="492" precision="FP32">
					<dim>8</dim>
					<dim>16</dim>
					<dim>512</dim>
				</port>
			</output>
		</layer>
		<layer id="314" name="495/Unsqueeze/Output_0/Data__const" type="Const" version="opset1">
			<data element_type="i64" offset="32792" shape="1" size="8"/>
			<output>
				<port id="0" names="495" precision="I64">
					<dim>1</dim>
				</port>
			</output>
		</layer>
		<layer id="315" name="496/Unsqueeze/Output_0/Data__const" type="Const" version="opset1">
			<data element_type="i64" offset="32800" shape="1" size="8"/>
			<output>
				<port id="0" names="496" precision="I64">
					<dim>1</dim>
				</port>
			</output>
		</layer>
		<layer id="316" name="497/Dims/Output_0/Data__const" type="Const" version="opset1">
			<data element_type="i64" offset="32812" shape="1" size="8"/>
			<output>
				<port id="0" precision="I64">
					<dim>1</dim>
				</port>
			</output>
		</layer>
		<layer id="317" name="497/Unsqueeze" type="Unsqueeze" version="opset1">
			<input>
				<port id="0"/>
				<port id="1">
					<dim>1</dim>
				</port>
			</input>
			<output>
				<port id="2" names="497" precision="I64">
					<dim>1</dim>
				</port>
			</output>
		</layer>
		<layer id="318" name="498" type="Concat" version="opset1">
			<data axis="0"/>
			<input>
				<port id="0">
					<dim>1</dim>
				</port>
				<port id="1">
					<dim>1</dim>
				</port>
				<port id="2">
					<dim>1</dim>
				</port>
			</input>
			<output>
				<port id="3" names="498" precision="I64">
					<dim>3</dim>
				</port>
			</output>
		</layer>
		<layer id="319" name="499" type="Reshape" version="opset1">
			<data special_zero="true"/>
			<input>
				<port id="0">
					<dim>8</dim>
					<dim>16</dim>
					<dim>512</dim>
				</port>
				<port id="1">
					<dim>3</dim>
				</port>
			</input>
			<output>
				<port id="2" names="499" precision="FP32">
					<dim>8</dim>
					<dim>16</dim>
					<dim>512</dim>
				</port>
			</output>
		</layer>
		<layer id="320" name="234/Output_0/Data__const" type="Const" version="opset1">
			<data element_type="f32" offset="16822724" shape="8,512,64" size="1048576"/>
			<output>
				<port id="0" names="234" precision="FP32">
					<dim>8</dim>
					<dim>512</dim>
					<dim>64</dim>
				</port>
			</output>
		</layer>
		<layer id="321" name="516" type="MatMul" version="opset1">
			<data transpose_a="false" transpose_b="false"/>
			<input>
				<port id="0">
					<dim>8</dim>
					<dim>16</dim>
					<dim>512</dim>
				</port>
				<port id="1">
					<dim>8</dim>
					<dim>512</dim>
					<dim>64</dim>
				</port>
			</input>
			<output>
				<port id="2" names="516" precision="FP32">
					<dim>8</dim>
					<dim>16</dim>
					<dim>64</dim>
				</port>
			</output>
		</layer>
		<layer id="322" name="519/Unsqueeze/Output_0/Data__const" type="Const" version="opset1">
			<data element_type="i64" offset="32800" shape="1" size="8"/>
			<output>
				<port id="0" names="519" precision="I64">
					<dim>1</dim>
				</port>
			</output>
		</layer>
		<layer id="323" name="468" type="ShapeOf" version="opset3">
			<data output_type="i64"/>
			<input>
				<port id="0">
					<dim>1</dim>
					<dim>16</dim>
					<dim>512</dim>
				</port>
			</input>
			<output>
				<port id="1" names="468" precision="I64">
					<dim>3</dim>
				</port>
			</output>
		</layer>
		<layer id="324" name="469949/Cast_116156_const" type="Const" version="opset1">
			<data element_type="i32" offset="1081396" shape="" size="4"/>
			<output>
				<port id="0" names="467" precision="I32"/>
			</output>
		</layer>
		<layer id="325" name="469949/Cast_216158_const" type="Const" version="opset1">
			<data element_type="i64" offset="32812" shape="" size="8"/>
			<output>
				<port id="0" precision="I64"/>
			</output>
		</layer>
		<layer id="326" name="469949" type="Gather" version="opset1">
			<input>
				<port id="0">
					<dim>3</dim>
				</port>
				<port id="1"/>
				<port id="2"/>
			</input>
			<output>
				<port id="3" names="469" precision="I64"/>
			</output>
		</layer>
		<layer id="327" name="520/Dims/Output_0/Data__const" type="Const" version="opset1">
			<data element_type="i64" offset="32812" shape="1" size="8"/>
			<output>
				<port id="0" precision="I64">
					<dim>1</dim>
				</port>
			</output>
		</layer>
		<layer id="328" name="520/Unsqueeze" type="Unsqueeze" version="opset1">
			<input>
				<port id="0"/>
				<port id="1">
					<dim>1</dim>
				</port>
			</input>
			<output>
				<port id="2" names="520" precision="I64">
					<dim>1</dim>
				</port>
			</output>
		</layer>
		<layer id="329" name="521/Unsqueeze/Output_0/Data__const" type="Const" version="opset1">
			<data element_type="i64" offset="1081400" shape="1" size="8"/>
			<output>
				<port id="0" names="521" precision="I64">
					<dim>1</dim>
				</port>
			</output>
		</layer>
		<layer id="330" name="522" type="Concat" version="opset1">
			<data axis="0"/>
			<input>
				<port id="0">
					<dim>1</dim>
				</port>
				<port id="1">
					<dim>1</dim>
				</port>
				<port id="2">
					<dim>1</dim>
				</port>
			</input>
			<output>
				<port id="3" names="522" precision="I64">
					<dim>3</dim>
				</port>
			</output>
		</layer>
		<layer id="331" name="523" type="Reshape" version="opset1">
			<data special_zero="true"/>
			<input>
				<port id="0">
					<dim>8</dim>
					<dim>16</dim>
					<dim>64</dim>
				</port>
				<port id="1">
					<dim>3</dim>
				</port>
			</input>
			<output>
				<port id="2" names="523" precision="FP32">
					<dim>8</dim>
					<dim>16</dim>
					<dim>64</dim>
				</port>
			</output>
		</layer>
		<layer id="332" name="549" type="MatMul" version="opset1">
			<data transpose_a="false" transpose_b="false"/>
			<input>
				<port id="0">
					<dim>8</dim>
					<dim>16</dim>
					<dim>16</dim>
				</port>
				<port id="1">
					<dim>8</dim>
					<dim>16</dim>
					<dim>64</dim>
				</port>
			</input>
			<output>
				<port id="2" names="549" precision="FP32">
					<dim>8</dim>
					<dim>16</dim>
					<dim>64</dim>
				</port>
			</output>
		</layer>
		<layer id="333" name="551/Cast_116010_const" type="Const" version="opset1">
			<data element_type="i64" offset="3178860" shape="4" size="32"/>
			<output>
				<port id="0" names="550" precision="I64">
					<dim>4</dim>
				</port>
			</output>
		</layer>
		<layer id="334" name="551" type="Reshape" version="opset1">
			<data special_zero="true"/>
			<input>
				<port id="0">
					<dim>8</dim>
					<dim>16</dim>
					<dim>64</dim>
				</port>
				<port id="1">
					<dim>4</dim>
				</port>
			</input>
			<output>
				<port id="2" names="551" precision="FP32">
					<dim>8</dim>
					<dim>1</dim>
					<dim>16</dim>
					<dim>64</dim>
				</port>
			</output>
		</layer>
		<layer id="335" name="552/Cast_116044_const" type="Const" version="opset1">
			<data element_type="i64" offset="3178892" shape="4" size="32"/>
			<output>
				<port id="0" precision="I64">
					<dim>4</dim>
				</port>
			</output>
		</layer>
		<layer id="336" name="552" type="Transpose" version="opset1">
			<input>
				<port id="0">
					<dim>8</dim>
					<dim>1</dim>
					<dim>16</dim>
					<dim>64</dim>
				</port>
				<port id="1">
					<dim>4</dim>
				</port>
			</input>
			<output>
				<port id="2" names="552" precision="FP32">
					<dim>1</dim>
					<dim>16</dim>
					<dim>8</dim>
					<dim>64</dim>
				</port>
			</output>
		</layer>
		<layer id="337" name="554/Cast_116152_const" type="Const" version="opset1">
			<data element_type="i64" offset="3178924" shape="3" size="24"/>
			<output>
				<port id="0" names="553" precision="I64">
					<dim>3</dim>
				</port>
			</output>
		</layer>
		<layer id="338" name="554" type="Reshape" version="opset1">
			<data special_zero="true"/>
			<input>
				<port id="0">
					<dim>1</dim>
					<dim>16</dim>
					<dim>8</dim>
					<dim>64</dim>
				</port>
				<port id="1">
					<dim>3</dim>
				</port>
			</input>
			<output>
				<port id="2" names="555,554" precision="FP32">
					<dim>1</dim>
					<dim>16</dim>
					<dim>512</dim>
				</port>
			</output>
		</layer>
		<layer id="339" name="557" type="Add" version="opset1">
			<data auto_broadcast="numpy"/>
			<input>
				<port id="0">
					<dim>1</dim>
					<dim>16</dim>
					<dim>512</dim>
				</port>
				<port id="1">
					<dim>1</dim>
					<dim>16</dim>
					<dim>512</dim>
				</port>
			</input>
			<output>
				<port id="2" names="557" precision="FP32">
					<dim>1</dim>
					<dim>16</dim>
					<dim>512</dim>
				</port>
			</output>
		</layer>
		<layer id="340" name="558/Cast_116154_const" type="Const" version="opset1">
			<data element_type="i64" offset="2129984" shape="3" size="24"/>
			<output>
				<port id="0" precision="I64">
					<dim>3</dim>
				</port>
			</output>
		</layer>
		<layer id="341" name="558" type="Transpose" version="opset1">
			<input>
				<port id="0">
					<dim>1</dim>
					<dim>16</dim>
					<dim>512</dim>
				</port>
				<port id="1">
					<dim>3</dim>
				</port>
			</input>
			<output>
				<port id="2" names="558" precision="FP32">
					<dim>1</dim>
					<dim>512</dim>
					<dim>16</dim>
				</port>
			</output>
		</layer>
		<layer id="342" name="235/Output_0/Data__const" type="Const" version="opset1">
			<data element_type="f32" offset="17871300" shape="1024,512,1" size="2097152"/>
			<output>
				<port id="0" names="235" precision="FP32">
					<dim>1024</dim>
					<dim>512</dim>
					<dim>1</dim>
				</port>
			</output>
		</layer>
		<layer id="343" name="559/WithoutBiases" type="Convolution" version="opset1">
			<data auto_pad="explicit" dilations="1" pads_begin="0" pads_end="0" strides="1"/>
			<input>
				<port id="0">
					<dim>1</dim>
					<dim>512</dim>
					<dim>16</dim>
				</port>
				<port id="1">
					<dim>1024</dim>
					<dim>512</dim>
					<dim>1</dim>
				</port>
			</input>
			<output>
				<port id="2" precision="FP32">
					<dim>1</dim>
					<dim>1024</dim>
					<dim>16</dim>
				</port>
			</output>
		</layer>
		<layer id="344" name="559/Dims45847226/EltwiseUnsqueeze7252_const" type="Const" version="opset1">
			<data element_type="f32" offset="19968452" shape="1,1024,1" size="4096"/>
			<output>
				<port id="0" precision="FP32">
					<dim>1</dim>
					<dim>1024</dim>
					<dim>1</dim>
				</port>
			</output>
		</layer>
		<layer id="345" name="559" type="Add" version="opset1">
			<data auto_broadcast="numpy"/>
			<input>
				<port id="0">
					<dim>1</dim>
					<dim>1024</dim>
					<dim>16</dim>
				</port>
				<port id="1">
					<dim>1</dim>
					<dim>1024</dim>
					<dim>1</dim>
				</port>
			</input>
			<output>
				<port id="2" names="559" precision="FP32">
					<dim>1</dim>
					<dim>1024</dim>
					<dim>16</dim>
				</port>
			</output>
		</layer>
		<layer id="346" name="560" type="ReLU" version="opset1">
			<input>
				<port id="0">
					<dim>1</dim>
					<dim>1024</dim>
					<dim>16</dim>
				</port>
			</input>
			<output>
				<port id="1" names="560" precision="FP32">
					<dim>1</dim>
					<dim>1024</dim>
					<dim>16</dim>
				</port>
			</output>
		</layer>
		<layer id="347" name="237/Output_0/Data__const" type="Const" version="opset1">
			<data element_type="f32" offset="19972548" shape="512,1024,1" size="2097152"/>
			<output>
				<port id="0" names="237" precision="FP32">
					<dim>512</dim>
					<dim>1024</dim>
					<dim>1</dim>
				</port>
			</output>
		</layer>
		<layer id="348" name="561/WithoutBiases" type="Convolution" version="opset1">
			<data auto_pad="explicit" dilations="1" pads_begin="0" pads_end="0" strides="1"/>
			<input>
				<port id="0">
					<dim>1</dim>
					<dim>1024</dim>
					<dim>16</dim>
				</port>
				<port id="1">
					<dim>512</dim>
					<dim>1024</dim>
					<dim>1</dim>
				</port>
			</input>
			<output>
				<port id="2" precision="FP32">
					<dim>1</dim>
					<dim>512</dim>
					<dim>16</dim>
				</port>
			</output>
		</layer>
		<layer id="349" name="561/Dims46027229/EltwiseUnsqueeze7264_const" type="Const" version="opset1">
			<data element_type="f32" offset="22069700" shape="1,512,1" size="2048"/>
			<output>
				<port id="0" precision="FP32">
					<dim>1</dim>
					<dim>512</dim>
					<dim>1</dim>
				</port>
			</output>
		</layer>
		<layer id="350" name="561" type="Add" version="opset1">
			<data auto_broadcast="numpy"/>
			<input>
				<port id="0">
					<dim>1</dim>
					<dim>512</dim>
					<dim>16</dim>
				</port>
				<port id="1">
					<dim>1</dim>
					<dim>512</dim>
					<dim>1</dim>
				</port>
			</input>
			<output>
				<port id="2" names="561" precision="FP32">
					<dim>1</dim>
					<dim>512</dim>
					<dim>16</dim>
				</port>
			</output>
		</layer>
		<layer id="351" name="562/Cast_116050_const" type="Const" version="opset1">
			<data element_type="i64" offset="2129984" shape="3" size="24"/>
			<output>
				<port id="0" precision="I64">
					<dim>3</dim>
				</port>
			</output>
		</layer>
		<layer id="352" name="562" type="Transpose" version="opset1">
			<input>
				<port id="0">
					<dim>1</dim>
					<dim>512</dim>
					<dim>16</dim>
				</port>
				<port id="1">
					<dim>3</dim>
				</port>
			</input>
			<output>
				<port id="2" names="563,562" precision="FP32">
					<dim>1</dim>
					<dim>16</dim>
					<dim>512</dim>
				</port>
			</output>
		</layer>
		<layer id="353" name="565" type="Add" version="opset1">
			<data auto_broadcast="numpy"/>
			<input>
				<port id="0">
					<dim>1</dim>
					<dim>16</dim>
					<dim>512</dim>
				</port>
				<port id="1">
					<dim>1</dim>
					<dim>16</dim>
					<dim>512</dim>
				</port>
			</input>
			<output>
				<port id="2" names="565" precision="FP32">
					<dim>1</dim>
					<dim>16</dim>
					<dim>512</dim>
				</port>
			</output>
		</layer>
		<layer id="354" name="578/Output_0/Data__const" type="Const" version="opset1">
			<data element_type="i64" offset="32768" shape="3" size="24"/>
			<output>
				<port id="0" names="578" precision="I64">
					<dim>3</dim>
				</port>
			</output>
		</layer>
		<layer id="355" name="579" type="Tile" version="opset1">
			<input>
				<port id="0">
					<dim>1</dim>
					<dim>16</dim>
					<dim>512</dim>
				</port>
				<port id="1">
					<dim>3</dim>
				</port>
			</input>
			<output>
				<port id="2" names="579" precision="FP32">
					<dim>8</dim>
					<dim>16</dim>
					<dim>512</dim>
				</port>
			</output>
		</layer>
		<layer id="356" name="582/Unsqueeze/Output_0/Data__const" type="Const" version="opset1">
			<data element_type="i64" offset="32792" shape="1" size="8"/>
			<output>
				<port id="0" names="582" precision="I64">
					<dim>1</dim>
				</port>
			</output>
		</layer>
		<layer id="357" name="583/Unsqueeze/Output_0/Data__const" type="Const" version="opset1">
			<data element_type="i64" offset="32800" shape="1" size="8"/>
			<output>
				<port id="0" names="583" precision="I64">
					<dim>1</dim>
				</port>
			</output>
		</layer>
		<layer id="358" name="576" type="ShapeOf" version="opset3">
			<data output_type="i64"/>
			<input>
				<port id="0">
					<dim>1</dim>
					<dim>16</dim>
					<dim>512</dim>
				</port>
			</input>
			<output>
				<port id="1" names="576" precision="I64">
					<dim>3</dim>
				</port>
			</output>
		</layer>
		<layer id="359" name="577941/Cast_115992_const" type="Const" version="opset1">
			<data element_type="i32" offset="32808" shape="" size="4"/>
			<output>
				<port id="0" names="575" precision="I32"/>
			</output>
		</layer>
		<layer id="360" name="577941/Cast_215994_const" type="Const" version="opset1">
			<data element_type="i64" offset="32812" shape="" size="8"/>
			<output>
				<port id="0" precision="I64"/>
			</output>
		</layer>
		<layer id="361" name="577941" type="Gather" version="opset1">
			<input>
				<port id="0">
					<dim>3</dim>
				</port>
				<port id="1"/>
				<port id="2"/>
			</input>
			<output>
				<port id="3" names="577" precision="I64"/>
			</output>
		</layer>
		<layer id="362" name="584/Dims/Output_0/Data__const" type="Const" version="opset1">
			<data element_type="i64" offset="32812" shape="1" size="8"/>
			<output>
				<port id="0" precision="I64">
					<dim>1</dim>
				</port>
			</output>
		</layer>
		<layer id="363" name="584/Unsqueeze" type="Unsqueeze" version="opset1">
			<input>
				<port id="0"/>
				<port id="1">
					<dim>1</dim>
				</port>
			</input>
			<output>
				<port id="2" names="584" precision="I64">
					<dim>1</dim>
				</port>
			</output>
		</layer>
		<layer id="364" name="585" type="Concat" version="opset1">
			<data axis="0"/>
			<input>
				<port id="0">
					<dim>1</dim>
				</port>
				<port id="1">
					<dim>1</dim>
				</port>
				<port id="2">
					<dim>1</dim>
				</port>
			</input>
			<output>
				<port id="3" names="585" precision="I64">
					<dim>3</dim>
				</port>
			</output>
		</layer>
		<layer id="365" name="586" type="Reshape" version="opset1">
			<data special_zero="true"/>
			<input>
				<port id="0">
					<dim>8</dim>
					<dim>16</dim>
					<dim>512</dim>
				</port>
				<port id="1">
					<dim>3</dim>
				</port>
			</input>
			<output>
				<port id="2" names="586" precision="FP32">
					<dim>8</dim>
					<dim>16</dim>
					<dim>512</dim>
				</port>
			</output>
		</layer>
		<layer id="366" name="239/Output_0/Data__const" type="Const" version="opset1">
			<data element_type="f32" offset="22071748" shape="8,512,64" size="1048576"/>
			<output>
				<port id="0" names="239" precision="FP32">
					<dim>8</dim>
					<dim>512</dim>
					<dim>64</dim>
				</port>
			</output>
		</layer>
		<layer id="367" name="605" type="MatMul" version="opset1">
			<data transpose_a="false" transpose_b="false"/>
			<input>
				<port id="0">
					<dim>8</dim>
					<dim>16</dim>
					<dim>512</dim>
				</port>
				<port id="1">
					<dim>8</dim>
					<dim>512</dim>
					<dim>64</dim>
				</port>
			</input>
			<output>
				<port id="2" names="605" precision="FP32">
					<dim>8</dim>
					<dim>16</dim>
					<dim>64</dim>
				</port>
			</output>
		</layer>
		<layer id="368" name="608/Unsqueeze/Output_0/Data__const" type="Const" version="opset1">
			<data element_type="i64" offset="32800" shape="1" size="8"/>
			<output>
				<port id="0" names="608" precision="I64">
					<dim>1</dim>
				</port>
			</output>
		</layer>
		<layer id="369" name="567" type="ShapeOf" version="opset3">
			<data output_type="i64"/>
			<input>
				<port id="0">
					<dim>1</dim>
					<dim>16</dim>
					<dim>512</dim>
				</port>
			</input>
			<output>
				<port id="1" names="567" precision="I64">
					<dim>3</dim>
				</port>
			</output>
		</layer>
		<layer id="370" name="568943/Cast_116096_const" type="Const" version="opset1">
			<data element_type="i32" offset="1081396" shape="" size="4"/>
			<output>
				<port id="0" names="566" precision="I32"/>
			</output>
		</layer>
		<layer id="371" name="568943/Cast_216098_const" type="Const" version="opset1">
			<data element_type="i64" offset="32812" shape="" size="8"/>
			<output>
				<port id="0" precision="I64"/>
			</output>
		</layer>
		<layer id="372" name="568943" type="Gather" version="opset1">
			<input>
				<port id="0">
					<dim>3</dim>
				</port>
				<port id="1"/>
				<port id="2"/>
			</input>
			<output>
				<port id="3" names="568" precision="I64"/>
			</output>
		</layer>
		<layer id="373" name="609/Dims/Output_0/Data__const" type="Const" version="opset1">
			<data element_type="i64" offset="32812" shape="1" size="8"/>
			<output>
				<port id="0" precision="I64">
					<dim>1</dim>
				</port>
			</output>
		</layer>
		<layer id="374" name="609/Unsqueeze" type="Unsqueeze" version="opset1">
			<input>
				<port id="0"/>
				<port id="1">
					<dim>1</dim>
				</port>
			</input>
			<output>
				<port id="2" names="609" precision="I64">
					<dim>1</dim>
				</port>
			</output>
		</layer>
		<layer id="375" name="610/Unsqueeze/Output_0/Data__const" type="Const" version="opset1">
			<data element_type="i64" offset="1081400" shape="1" size="8"/>
			<output>
				<port id="0" names="610" precision="I64">
					<dim>1</dim>
				</port>
			</output>
		</layer>
		<layer id="376" name="611" type="Concat" version="opset1">
			<data axis="0"/>
			<input>
				<port id="0">
					<dim>1</dim>
				</port>
				<port id="1">
					<dim>1</dim>
				</port>
				<port id="2">
					<dim>1</dim>
				</port>
			</input>
			<output>
				<port id="3" names="611" precision="I64">
					<dim>3</dim>
				</port>
			</output>
		</layer>
		<layer id="377" name="612" type="Reshape" version="opset1">
			<data special_zero="true"/>
			<input>
				<port id="0">
					<dim>8</dim>
					<dim>16</dim>
					<dim>64</dim>
				</port>
				<port id="1">
					<dim>3</dim>
				</port>
			</input>
			<output>
				<port id="2" names="612" precision="FP32">
					<dim>8</dim>
					<dim>16</dim>
					<dim>64</dim>
				</port>
			</output>
		</layer>
		<layer id="378" name="587/Output_0/Data__const" type="Const" version="opset1">
			<data element_type="i64" offset="32768" shape="3" size="24"/>
			<output>
				<port id="0" names="587" precision="I64">
					<dim>3</dim>
				</port>
			</output>
		</layer>
		<layer id="379" name="588" type="Tile" version="opset1">
			<input>
				<port id="0">
					<dim>1</dim>
					<dim>16</dim>
					<dim>512</dim>
				</port>
				<port id="1">
					<dim>3</dim>
				</port>
			</input>
			<output>
				<port id="2" names="588" precision="FP32">
					<dim>8</dim>
					<dim>16</dim>
					<dim>512</dim>
				</port>
			</output>
		</layer>
		<layer id="380" name="591/Unsqueeze/Output_0/Data__const" type="Const" version="opset1">
			<data element_type="i64" offset="32792" shape="1" size="8"/>
			<output>
				<port id="0" names="591" precision="I64">
					<dim>1</dim>
				</port>
			</output>
		</layer>
		<layer id="381" name="592/Unsqueeze/Output_0/Data__const" type="Const" version="opset1">
			<data element_type="i64" offset="32800" shape="1" size="8"/>
			<output>
				<port id="0" names="592" precision="I64">
					<dim>1</dim>
				</port>
			</output>
		</layer>
		<layer id="382" name="593/Dims/Output_0/Data__const" type="Const" version="opset1">
			<data element_type="i64" offset="32812" shape="1" size="8"/>
			<output>
				<port id="0" precision="I64">
					<dim>1</dim>
				</port>
			</output>
		</layer>
		<layer id="383" name="593/Unsqueeze" type="Unsqueeze" version="opset1">
			<input>
				<port id="0"/>
				<port id="1">
					<dim>1</dim>
				</port>
			</input>
			<output>
				<port id="2" names="593" precision="I64">
					<dim>1</dim>
				</port>
			</output>
		</layer>
		<layer id="384" name="594" type="Concat" version="opset1">
			<data axis="0"/>
			<input>
				<port id="0">
					<dim>1</dim>
				</port>
				<port id="1">
					<dim>1</dim>
				</port>
				<port id="2">
					<dim>1</dim>
				</port>
			</input>
			<output>
				<port id="3" names="594" precision="I64">
					<dim>3</dim>
				</port>
			</output>
		</layer>
		<layer id="385" name="595" type="Reshape" version="opset1">
			<data special_zero="true"/>
			<input>
				<port id="0">
					<dim>8</dim>
					<dim>16</dim>
					<dim>512</dim>
				</port>
				<port id="1">
					<dim>3</dim>
				</port>
			</input>
			<output>
				<port id="2" names="595" precision="FP32">
					<dim>8</dim>
					<dim>16</dim>
					<dim>512</dim>
				</port>
			</output>
		</layer>
		<layer id="386" name="240/Output_0/Data__const" type="Const" version="opset1">
			<data element_type="f32" offset="23120324" shape="8,512,64" size="1048576"/>
			<output>
				<port id="0" names="240" precision="FP32">
					<dim>8</dim>
					<dim>512</dim>
					<dim>64</dim>
				</port>
			</output>
		</layer>
		<layer id="387" name="613" type="MatMul" version="opset1">
			<data transpose_a="false" transpose_b="false"/>
			<input>
				<port id="0">
					<dim>8</dim>
					<dim>16</dim>
					<dim>512</dim>
				</port>
				<port id="1">
					<dim>8</dim>
					<dim>512</dim>
					<dim>64</dim>
				</port>
			</input>
			<output>
				<port id="2" names="613" precision="FP32">
					<dim>8</dim>
					<dim>16</dim>
					<dim>64</dim>
				</port>
			</output>
		</layer>
		<layer id="388" name="616/Unsqueeze/Output_0/Data__const" type="Const" version="opset1">
			<data element_type="i64" offset="32800" shape="1" size="8"/>
			<output>
				<port id="0" names="616" precision="I64">
					<dim>1</dim>
				</port>
			</output>
		</layer>
		<layer id="389" name="570" type="ShapeOf" version="opset3">
			<data output_type="i64"/>
			<input>
				<port id="0">
					<dim>1</dim>
					<dim>16</dim>
					<dim>512</dim>
				</port>
			</input>
			<output>
				<port id="1" names="570" precision="I64">
					<dim>3</dim>
				</port>
			</output>
		</layer>
		<layer id="390" name="571907/Cast_116024_const" type="Const" version="opset1">
			<data element_type="i32" offset="1081396" shape="" size="4"/>
			<output>
				<port id="0" names="569" precision="I32"/>
			</output>
		</layer>
		<layer id="391" name="571907/Cast_216026_const" type="Const" version="opset1">
			<data element_type="i64" offset="32812" shape="" size="8"/>
			<output>
				<port id="0" precision="I64"/>
			</output>
		</layer>
		<layer id="392" name="571907" type="Gather" version="opset1">
			<input>
				<port id="0">
					<dim>3</dim>
				</port>
				<port id="1"/>
				<port id="2"/>
			</input>
			<output>
				<port id="3" names="571" precision="I64"/>
			</output>
		</layer>
		<layer id="393" name="617/Dims/Output_0/Data__const" type="Const" version="opset1">
			<data element_type="i64" offset="32812" shape="1" size="8"/>
			<output>
				<port id="0" precision="I64">
					<dim>1</dim>
				</port>
			</output>
		</layer>
		<layer id="394" name="617/Unsqueeze" type="Unsqueeze" version="opset1">
			<input>
				<port id="0"/>
				<port id="1">
					<dim>1</dim>
				</port>
			</input>
			<output>
				<port id="2" names="617" precision="I64">
					<dim>1</dim>
				</port>
			</output>
		</layer>
		<layer id="395" name="618/Unsqueeze/Output_0/Data__const" type="Const" version="opset1">
			<data element_type="i64" offset="1081400" shape="1" size="8"/>
			<output>
				<port id="0" names="618" precision="I64">
					<dim>1</dim>
				</port>
			</output>
		</layer>
		<layer id="396" name="619" type="Concat" version="opset1">
			<data axis="0"/>
			<input>
				<port id="0">
					<dim>1</dim>
				</port>
				<port id="1">
					<dim>1</dim>
				</port>
				<port id="2">
					<dim>1</dim>
				</port>
			</input>
			<output>
				<port id="3" names="619" precision="I64">
					<dim>3</dim>
				</port>
			</output>
		</layer>
		<layer id="397" name="620" type="Reshape" version="opset1">
			<data special_zero="true"/>
			<input>
				<port id="0">
					<dim>8</dim>
					<dim>16</dim>
					<dim>64</dim>
				</port>
				<port id="1">
					<dim>3</dim>
				</port>
			</input>
			<output>
				<port id="2" names="620" precision="FP32">
					<dim>8</dim>
					<dim>16</dim>
					<dim>64</dim>
				</port>
			</output>
		</layer>
		<layer id="398" name="629/Cast_116054_const" type="Const" version="opset1">
			<data element_type="i64" offset="2129984" shape="3" size="24"/>
			<output>
				<port id="0" precision="I64">
					<dim>3</dim>
				</port>
			</output>
		</layer>
		<layer id="399" name="629" type="Transpose" version="opset1">
			<input>
				<port id="0">
					<dim>8</dim>
					<dim>16</dim>
					<dim>64</dim>
				</port>
				<port id="1">
					<dim>3</dim>
				</port>
			</input>
			<output>
				<port id="2" precision="FP32">
					<dim>8</dim>
					<dim>64</dim>
					<dim>16</dim>
				</port>
			</output>
		</layer>
		<layer id="400" name="632_copy/const75238388/EltwiseUnsqueeze8404_const" type="Const" version="opset1">
			<data element_type="f32" offset="2130008" shape="1,64,1" size="256"/>
			<output>
				<port id="0" precision="FP32">
					<dim>1</dim>
					<dim>64</dim>
					<dim>1</dim>
				</port>
			</output>
		</layer>
		<layer id="401" name="632_copy" type="Multiply" version="opset1">
			<data auto_broadcast="numpy"/>
			<input>
				<port id="0">
					<dim>8</dim>
					<dim>64</dim>
					<dim>16</dim>
				</port>
				<port id="1">
					<dim>1</dim>
					<dim>64</dim>
					<dim>1</dim>
				</port>
			</input>
			<output>
				<port id="2" names="629" precision="FP32">
					<dim>8</dim>
					<dim>64</dim>
					<dim>16</dim>
				</port>
			</output>
		</layer>
		<layer id="402" name="630" type="MatMul" version="opset1">
			<data transpose_a="false" transpose_b="false"/>
			<input>
				<port id="0">
					<dim>8</dim>
					<dim>16</dim>
					<dim>64</dim>
				</port>
				<port id="1">
					<dim>8</dim>
					<dim>64</dim>
					<dim>16</dim>
				</port>
			</input>
			<output>
				<port id="2" names="632" precision="FP32">
					<dim>8</dim>
					<dim>16</dim>
					<dim>16</dim>
				</port>
			</output>
		</layer>
		<layer id="403" name="634" type="ShapeOf" version="opset3">
			<data output_type="i64"/>
			<input>
				<port id="0">
					<dim>8</dim>
					<dim>16</dim>
					<dim>16</dim>
				</port>
			</input>
			<output>
				<port id="1" names="634" precision="I64">
					<dim>3</dim>
				</port>
			</output>
		</layer>
		<layer id="404" name="635939/Cast_116084_const" type="Const" version="opset1">
			<data element_type="i32" offset="2130264" shape="" size="4"/>
			<output>
				<port id="0" names="633" precision="I32"/>
			</output>
		</layer>
		<layer id="405" name="635939/Cast_216086_const" type="Const" version="opset1">
			<data element_type="i64" offset="32812" shape="" size="8"/>
			<output>
				<port id="0" precision="I64"/>
			</output>
		</layer>
		<layer id="406" name="635939" type="Gather" version="opset1">
			<input>
				<port id="0">
					<dim>3</dim>
				</port>
				<port id="1"/>
				<port id="2"/>
			</input>
			<output>
				<port id="3" names="635" precision="I64"/>
			</output>
		</layer>
		<layer id="407" name="637" type="ShapeOf" version="opset3">
			<data output_type="i64"/>
			<input>
				<port id="0">
					<dim>8</dim>
					<dim>16</dim>
					<dim>16</dim>
				</port>
			</input>
			<output>
				<port id="1" names="637" precision="I64">
					<dim>3</dim>
				</port>
			</output>
		</layer>
		<layer id="408" name="638915/Cast_116140_const" type="Const" version="opset1">
			<data element_type="i32" offset="1081396" shape="" size="4"/>
			<output>
				<port id="0" names="636" precision="I32"/>
			</output>
		</layer>
		<layer id="409" name="638915/Cast_216142_const" type="Const" version="opset1">
			<data element_type="i64" offset="32812" shape="" size="8"/>
			<output>
				<port id="0" precision="I64"/>
			</output>
		</layer>
		<layer id="410" name="638915" type="Gather" version="opset1">
			<input>
				<port id="0">
					<dim>3</dim>
				</port>
				<port id="1"/>
				<port id="2"/>
			</input>
			<output>
				<port id="3" names="638" precision="I64"/>
			</output>
		</layer>
		<layer id="411" name="639" type="Multiply" version="opset1">
			<data auto_broadcast="numpy"/>
			<input>
				<port id="0"/>
				<port id="1"/>
			</input>
			<output>
				<port id="2" names="639" precision="I64"/>
			</output>
		</layer>
		<layer id="412" name="641/Dims/Output_0/Data__const" type="Const" version="opset1">
			<data element_type="i64" offset="32812" shape="1" size="8"/>
			<output>
				<port id="0" precision="I64">
					<dim>1</dim>
				</port>
			</output>
		</layer>
		<layer id="413" name="641/Unsqueeze" type="Unsqueeze" version="opset1">
			<input>
				<port id="0"/>
				<port id="1">
					<dim>1</dim>
				</port>
			</input>
			<output>
				<port id="2" names="641" precision="I64">
					<dim>1</dim>
				</port>
			</output>
		</layer>
		<layer id="414" name="642/Unsqueeze/Output_0/Data__const" type="Const" version="opset1">
			<data element_type="i64" offset="32800" shape="1" size="8"/>
			<output>
				<port id="0" names="642" precision="I64">
					<dim>1</dim>
				</port>
			</output>
		</layer>
		<layer id="415" name="643" type="Concat" version="opset1">
			<data axis="0"/>
			<input>
				<port id="0">
					<dim>1</dim>
				</port>
				<port id="1">
					<dim>1</dim>
				</port>
			</input>
			<output>
				<port id="2" names="643" precision="I64">
					<dim>2</dim>
				</port>
			</output>
		</layer>
		<layer id="416" name="644" type="Reshape" version="opset1">
			<data special_zero="true"/>
			<input>
				<port id="0">
					<dim>8</dim>
					<dim>16</dim>
					<dim>16</dim>
				</port>
				<port id="1">
					<dim>2</dim>
				</port>
			</input>
			<output>
				<port id="2" names="644" precision="FP32">
					<dim>128</dim>
					<dim>16</dim>
				</port>
			</output>
		</layer>
		<layer id="417" name="645/FlattenONNX_/Reshape/Cast_116124_const" type="Const" version="opset1">
			<data element_type="i64" offset="2130268" shape="2" size="16"/>
			<output>
				<port id="0" precision="I64">
					<dim>2</dim>
				</port>
			</output>
		</layer>
		<layer id="418" name="645/FlattenONNX_/Reshape" type="Reshape" version="opset1">
			<data special_zero="true"/>
			<input>
				<port id="0">
					<dim>128</dim>
					<dim>16</dim>
				</port>
				<port id="1">
					<dim>2</dim>
				</port>
			</input>
			<output>
				<port id="2" precision="FP32">
					<dim>128</dim>
					<dim>16</dim>
				</port>
			</output>
		</layer>
		<layer id="419" name="645/Softmax_" type="SoftMax" version="opset1">
			<data axis="1"/>
			<input>
				<port id="0">
					<dim>128</dim>
					<dim>16</dim>
				</port>
			</input>
			<output>
				<port id="1" precision="FP32">
					<dim>128</dim>
					<dim>16</dim>
				</port>
			</output>
		</layer>
		<layer id="420" name="645/ShapeOf_" type="ShapeOf" version="opset3">
			<data output_type="i64"/>
			<input>
				<port id="0">
					<dim>128</dim>
					<dim>16</dim>
				</port>
			</input>
			<output>
				<port id="1" precision="I64">
					<dim>2</dim>
				</port>
			</output>
		</layer>
		<layer id="421" name="645" type="Reshape" version="opset1">
			<data special_zero="true"/>
			<input>
				<port id="0">
					<dim>128</dim>
					<dim>16</dim>
				</port>
				<port id="1">
					<dim>2</dim>
				</port>
			</input>
			<output>
				<port id="2" names="645" precision="FP32">
					<dim>128</dim>
					<dim>16</dim>
				</port>
			</output>
		</layer>
		<layer id="422" name="647/Dims/Output_0/Data__const" type="Const" version="opset1">
			<data element_type="i64" offset="32812" shape="1" size="8"/>
			<output>
				<port id="0" precision="I64">
					<dim>1</dim>
				</port>
			</output>
		</layer>
		<layer id="423" name="647/Unsqueeze" type="Unsqueeze" version="opset1">
			<input>
				<port id="0"/>
				<port id="1">
					<dim>1</dim>
				</port>
			</input>
			<output>
				<port id="2" names="647" precision="I64">
					<dim>1</dim>
				</port>
			</output>
		</layer>
		<layer id="424" name="648/Dims/Output_0/Data__const" type="Const" version="opset1">
			<data element_type="i64" offset="32812" shape="1" size="8"/>
			<output>
				<port id="0" precision="I64">
					<dim>1</dim>
				</port>
			</output>
		</layer>
		<layer id="425" name="648/Unsqueeze" type="Unsqueeze" version="opset1">
			<input>
				<port id="0"/>
				<port id="1">
					<dim>1</dim>
				</port>
			</input>
			<output>
				<port id="2" names="648" precision="I64">
					<dim>1</dim>
				</port>
			</output>
		</layer>
		<layer id="426" name="649/Unsqueeze/Output_0/Data__const" type="Const" version="opset1">
			<data element_type="i64" offset="32800" shape="1" size="8"/>
			<output>
				<port id="0" names="649" precision="I64">
					<dim>1</dim>
				</port>
			</output>
		</layer>
		<layer id="427" name="650" type="Concat" version="opset1">
			<data axis="0"/>
			<input>
				<port id="0">
					<dim>1</dim>
				</port>
				<port id="1">
					<dim>1</dim>
				</port>
				<port id="2">
					<dim>1</dim>
				</port>
			</input>
			<output>
				<port id="3" names="650" precision="I64">
					<dim>3</dim>
				</port>
			</output>
		</layer>
		<layer id="428" name="651" type="Reshape" version="opset1">
			<data special_zero="true"/>
			<input>
				<port id="0">
					<dim>128</dim>
					<dim>16</dim>
				</port>
				<port id="1">
					<dim>3</dim>
				</port>
			</input>
			<output>
				<port id="2" names="652,651" precision="FP32">
					<dim>8</dim>
					<dim>16</dim>
					<dim>16</dim>
				</port>
			</output>
		</layer>
		<layer id="429" name="596/Output_0/Data__const" type="Const" version="opset1">
			<data element_type="i64" offset="32768" shape="3" size="24"/>
			<output>
				<port id="0" names="596" precision="I64">
					<dim>3</dim>
				</port>
			</output>
		</layer>
		<layer id="430" name="597" type="Tile" version="opset1">
			<input>
				<port id="0">
					<dim>1</dim>
					<dim>16</dim>
					<dim>512</dim>
				</port>
				<port id="1">
					<dim>3</dim>
				</port>
			</input>
			<output>
				<port id="2" names="597" precision="FP32">
					<dim>8</dim>
					<dim>16</dim>
					<dim>512</dim>
				</port>
			</output>
		</layer>
		<layer id="431" name="600/Unsqueeze/Output_0/Data__const" type="Const" version="opset1">
			<data element_type="i64" offset="32792" shape="1" size="8"/>
			<output>
				<port id="0" names="600" precision="I64">
					<dim>1</dim>
				</port>
			</output>
		</layer>
		<layer id="432" name="601/Unsqueeze/Output_0/Data__const" type="Const" version="opset1">
			<data element_type="i64" offset="32800" shape="1" size="8"/>
			<output>
				<port id="0" names="601" precision="I64">
					<dim>1</dim>
				</port>
			</output>
		</layer>
		<layer id="433" name="602/Dims/Output_0/Data__const" type="Const" version="opset1">
			<data element_type="i64" offset="32812" shape="1" size="8"/>
			<output>
				<port id="0" precision="I64">
					<dim>1</dim>
				</port>
			</output>
		</layer>
		<layer id="434" name="602/Unsqueeze" type="Unsqueeze" version="opset1">
			<input>
				<port id="0"/>
				<port id="1">
					<dim>1</dim>
				</port>
			</input>
			<output>
				<port id="2" names="602" precision="I64">
					<dim>1</dim>
				</port>
			</output>
		</layer>
		<layer id="435" name="603" type="Concat" version="opset1">
			<data axis="0"/>
			<input>
				<port id="0">
					<dim>1</dim>
				</port>
				<port id="1">
					<dim>1</dim>
				</port>
				<port id="2">
					<dim>1</dim>
				</port>
			</input>
			<output>
				<port id="3" names="603" precision="I64">
					<dim>3</dim>
				</port>
			</output>
		</layer>
		<layer id="436" name="604" type="Reshape" version="opset1">
			<data special_zero="true"/>
			<input>
				<port id="0">
					<dim>8</dim>
					<dim>16</dim>
					<dim>512</dim>
				</port>
				<port id="1">
					<dim>3</dim>
				</port>
			</input>
			<output>
				<port id="2" names="604" precision="FP32">
					<dim>8</dim>
					<dim>16</dim>
					<dim>512</dim>
				</port>
			</output>
		</layer>
		<layer id="437" name="241/Output_0/Data__const" type="Const" version="opset1">
			<data element_type="f32" offset="24168900" shape="8,512,64" size="1048576"/>
			<output>
				<port id="0" names="241" precision="FP32">
					<dim>8</dim>
					<dim>512</dim>
					<dim>64</dim>
				</port>
			</output>
		</layer>
		<layer id="438" name="621" type="MatMul" version="opset1">
			<data transpose_a="false" transpose_b="false"/>
			<input>
				<port id="0">
					<dim>8</dim>
					<dim>16</dim>
					<dim>512</dim>
				</port>
				<port id="1">
					<dim>8</dim>
					<dim>512</dim>
					<dim>64</dim>
				</port>
			</input>
			<output>
				<port id="2" names="621" precision="FP32">
					<dim>8</dim>
					<dim>16</dim>
					<dim>64</dim>
				</port>
			</output>
		</layer>
		<layer id="439" name="624/Unsqueeze/Output_0/Data__const" type="Const" version="opset1">
			<data element_type="i64" offset="32800" shape="1" size="8"/>
			<output>
				<port id="0" names="624" precision="I64">
					<dim>1</dim>
				</port>
			</output>
		</layer>
		<layer id="440" name="573" type="ShapeOf" version="opset3">
			<data output_type="i64"/>
			<input>
				<port id="0">
					<dim>1</dim>
					<dim>16</dim>
					<dim>512</dim>
				</port>
			</input>
			<output>
				<port id="1" names="573" precision="I64">
					<dim>3</dim>
				</port>
			</output>
		</layer>
		<layer id="441" name="574901/Cast_115998_const" type="Const" version="opset1">
			<data element_type="i32" offset="1081396" shape="" size="4"/>
			<output>
				<port id="0" names="572" precision="I32"/>
			</output>
		</layer>
		<layer id="442" name="574901/Cast_216000_const" type="Const" version="opset1">
			<data element_type="i64" offset="32812" shape="" size="8"/>
			<output>
				<port id="0" precision="I64"/>
			</output>
		</layer>
		<layer id="443" name="574901" type="Gather" version="opset1">
			<input>
				<port id="0">
					<dim>3</dim>
				</port>
				<port id="1"/>
				<port id="2"/>
			</input>
			<output>
				<port id="3" names="574" precision="I64"/>
			</output>
		</layer>
		<layer id="444" name="625/Dims/Output_0/Data__const" type="Const" version="opset1">
			<data element_type="i64" offset="32812" shape="1" size="8"/>
			<output>
				<port id="0" precision="I64">
					<dim>1</dim>
				</port>
			</output>
		</layer>
		<layer id="445" name="625/Unsqueeze" type="Unsqueeze" version="opset1">
			<input>
				<port id="0"/>
				<port id="1">
					<dim>1</dim>
				</port>
			</input>
			<output>
				<port id="2" names="625" precision="I64">
					<dim>1</dim>
				</port>
			</output>
		</layer>
		<layer id="446" name="626/Unsqueeze/Output_0/Data__const" type="Const" version="opset1">
			<data element_type="i64" offset="1081400" shape="1" size="8"/>
			<output>
				<port id="0" names="626" precision="I64">
					<dim>1</dim>
				</port>
			</output>
		</layer>
		<layer id="447" name="627" type="Concat" version="opset1">
			<data axis="0"/>
			<input>
				<port id="0">
					<dim>1</dim>
				</port>
				<port id="1">
					<dim>1</dim>
				</port>
				<port id="2">
					<dim>1</dim>
				</port>
			</input>
			<output>
				<port id="3" names="627" precision="I64">
					<dim>3</dim>
				</port>
			</output>
		</layer>
		<layer id="448" name="628" type="Reshape" version="opset1">
			<data special_zero="true"/>
			<input>
				<port id="0">
					<dim>8</dim>
					<dim>16</dim>
					<dim>64</dim>
				</port>
				<port id="1">
					<dim>3</dim>
				</port>
			</input>
			<output>
				<port id="2" names="628" precision="FP32">
					<dim>8</dim>
					<dim>16</dim>
					<dim>64</dim>
				</port>
			</output>
		</layer>
		<layer id="449" name="654" type="MatMul" version="opset1">
			<data transpose_a="false" transpose_b="false"/>
			<input>
				<port id="0">
					<dim>8</dim>
					<dim>16</dim>
					<dim>16</dim>
				</port>
				<port id="1">
					<dim>8</dim>
					<dim>16</dim>
					<dim>64</dim>
				</port>
			</input>
			<output>
				<port id="2" names="654" precision="FP32">
					<dim>8</dim>
					<dim>16</dim>
					<dim>64</dim>
				</port>
			</output>
		</layer>
		<layer id="450" name="656/Cast_116002_const" type="Const" version="opset1">
			<data element_type="i64" offset="3178860" shape="4" size="32"/>
			<output>
				<port id="0" names="655" precision="I64">
					<dim>4</dim>
				</port>
			</output>
		</layer>
		<layer id="451" name="656" type="Reshape" version="opset1">
			<data special_zero="true"/>
			<input>
				<port id="0">
					<dim>8</dim>
					<dim>16</dim>
					<dim>64</dim>
				</port>
				<port id="1">
					<dim>4</dim>
				</port>
			</input>
			<output>
				<port id="2" names="656" precision="FP32">
					<dim>8</dim>
					<dim>1</dim>
					<dim>16</dim>
					<dim>64</dim>
				</port>
			</output>
		</layer>
		<layer id="452" name="657/Cast_116170_const" type="Const" version="opset1">
			<data element_type="i64" offset="3178892" shape="4" size="32"/>
			<output>
				<port id="0" precision="I64">
					<dim>4</dim>
				</port>
			</output>
		</layer>
		<layer id="453" name="657" type="Transpose" version="opset1">
			<input>
				<port id="0">
					<dim>8</dim>
					<dim>1</dim>
					<dim>16</dim>
					<dim>64</dim>
				</port>
				<port id="1">
					<dim>4</dim>
				</port>
			</input>
			<output>
				<port id="2" names="657" precision="FP32">
					<dim>1</dim>
					<dim>16</dim>
					<dim>8</dim>
					<dim>64</dim>
				</port>
			</output>
		</layer>
		<layer id="454" name="659/Cast_116016_const" type="Const" version="opset1">
			<data element_type="i64" offset="3178924" shape="3" size="24"/>
			<output>
				<port id="0" names="658" precision="I64">
					<dim>3</dim>
				</port>
			</output>
		</layer>
		<layer id="455" name="659" type="Reshape" version="opset1">
			<data special_zero="true"/>
			<input>
				<port id="0">
					<dim>1</dim>
					<dim>16</dim>
					<dim>8</dim>
					<dim>64</dim>
				</port>
				<port id="1">
					<dim>3</dim>
				</port>
			</input>
			<output>
				<port id="2" names="660,659" precision="FP32">
					<dim>1</dim>
					<dim>16</dim>
					<dim>512</dim>
				</port>
			</output>
		</layer>
		<layer id="456" name="662" type="Add" version="opset1">
			<data auto_broadcast="numpy"/>
			<input>
				<port id="0">
					<dim>1</dim>
					<dim>16</dim>
					<dim>512</dim>
				</port>
				<port id="1">
					<dim>1</dim>
					<dim>16</dim>
					<dim>512</dim>
				</port>
			</input>
			<output>
				<port id="2" names="662" precision="FP32">
					<dim>1</dim>
					<dim>16</dim>
					<dim>512</dim>
				</port>
			</output>
		</layer>
		<layer id="457" name="663/Cast_116110_const" type="Const" version="opset1">
			<data element_type="i64" offset="2129984" shape="3" size="24"/>
			<output>
				<port id="0" precision="I64">
					<dim>3</dim>
				</port>
			</output>
		</layer>
		<layer id="458" name="663" type="Transpose" version="opset1">
			<input>
				<port id="0">
					<dim>1</dim>
					<dim>16</dim>
					<dim>512</dim>
				</port>
				<port id="1">
					<dim>3</dim>
				</port>
			</input>
			<output>
				<port id="2" names="663" precision="FP32">
					<dim>1</dim>
					<dim>512</dim>
					<dim>16</dim>
				</port>
			</output>
		</layer>
		<layer id="459" name="242/Output_0/Data__const" type="Const" version="opset1">
			<data element_type="f32" offset="25217476" shape="1024,512,1" size="2097152"/>
			<output>
				<port id="0" names="242" precision="FP32">
					<dim>1024</dim>
					<dim>512</dim>
					<dim>1</dim>
				</port>
			</output>
		</layer>
		<layer id="460" name="664/WithoutBiases" type="Convolution" version="opset1">
			<data auto_pad="explicit" dilations="1" pads_begin="0" pads_end="0" strides="1"/>
			<input>
				<port id="0">
					<dim>1</dim>
					<dim>512</dim>
					<dim>16</dim>
				</port>
				<port id="1">
					<dim>1024</dim>
					<dim>512</dim>
					<dim>1</dim>
				</port>
			</input>
			<output>
				<port id="2" precision="FP32">
					<dim>1</dim>
					<dim>1024</dim>
					<dim>16</dim>
				</port>
			</output>
		</layer>
		<layer id="461" name="664/Dims46087230/EltwiseUnsqueeze7268_const" type="Const" version="opset1">
			<data element_type="f32" offset="27314628" shape="1,1024,1" size="4096"/>
			<output>
				<port id="0" precision="FP32">
					<dim>1</dim>
					<dim>1024</dim>
					<dim>1</dim>
				</port>
			</output>
		</layer>
		<layer id="462" name="664" type="Add" version="opset1">
			<data auto_broadcast="numpy"/>
			<input>
				<port id="0">
					<dim>1</dim>
					<dim>1024</dim>
					<dim>16</dim>
				</port>
				<port id="1">
					<dim>1</dim>
					<dim>1024</dim>
					<dim>1</dim>
				</port>
			</input>
			<output>
				<port id="2" names="664" precision="FP32">
					<dim>1</dim>
					<dim>1024</dim>
					<dim>16</dim>
				</port>
			</output>
		</layer>
		<layer id="463" name="665" type="ReLU" version="opset1">
			<input>
				<port id="0">
					<dim>1</dim>
					<dim>1024</dim>
					<dim>16</dim>
				</port>
			</input>
			<output>
				<port id="1" names="665" precision="FP32">
					<dim>1</dim>
					<dim>1024</dim>
					<dim>16</dim>
				</port>
			</output>
		</layer>
		<layer id="464" name="244/Output_0/Data__const" type="Const" version="opset1">
			<data element_type="f32" offset="27318724" shape="512,1024,1" size="2097152"/>
			<output>
				<port id="0" names="244" precision="FP32">
					<dim>512</dim>
					<dim>1024</dim>
					<dim>1</dim>
				</port>
			</output>
		</layer>
		<layer id="465" name="666/WithoutBiases" type="Convolution" version="opset1">
			<data auto_pad="explicit" dilations="1" pads_begin="0" pads_end="0" strides="1"/>
			<input>
				<port id="0">
					<dim>1</dim>
					<dim>1024</dim>
					<dim>16</dim>
				</port>
				<port id="1">
					<dim>512</dim>
					<dim>1024</dim>
					<dim>1</dim>
				</port>
			</input>
			<output>
				<port id="2" precision="FP32">
					<dim>1</dim>
					<dim>512</dim>
					<dim>16</dim>
				</port>
			</output>
		</layer>
		<layer id="466" name="666/Dims45787225/EltwiseUnsqueeze7248_const" type="Const" version="opset1">
			<data element_type="f32" offset="29415876" shape="1,512,1" size="2048"/>
			<output>
				<port id="0" precision="FP32">
					<dim>1</dim>
					<dim>512</dim>
					<dim>1</dim>
				</port>
			</output>
		</layer>
		<layer id="467" name="666" type="Add" version="opset1">
			<data auto_broadcast="numpy"/>
			<input>
				<port id="0">
					<dim>1</dim>
					<dim>512</dim>
					<dim>16</dim>
				</port>
				<port id="1">
					<dim>1</dim>
					<dim>512</dim>
					<dim>1</dim>
				</port>
			</input>
			<output>
				<port id="2" names="666" precision="FP32">
					<dim>1</dim>
					<dim>512</dim>
					<dim>16</dim>
				</port>
			</output>
		</layer>
		<layer id="468" name="667/Cast_116150_const" type="Const" version="opset1">
			<data element_type="i64" offset="2129984" shape="3" size="24"/>
			<output>
				<port id="0" precision="I64">
					<dim>3</dim>
				</port>
			</output>
		</layer>
		<layer id="469" name="667" type="Transpose" version="opset1">
			<input>
				<port id="0">
					<dim>1</dim>
					<dim>512</dim>
					<dim>16</dim>
				</port>
				<port id="1">
					<dim>3</dim>
				</port>
			</input>
			<output>
				<port id="2" names="668,667" precision="FP32">
					<dim>1</dim>
					<dim>16</dim>
					<dim>512</dim>
				</port>
			</output>
		</layer>
		<layer id="470" name="670" type="Add" version="opset1">
			<data auto_broadcast="numpy"/>
			<input>
				<port id="0">
					<dim>1</dim>
					<dim>16</dim>
					<dim>512</dim>
				</port>
				<port id="1">
					<dim>1</dim>
					<dim>16</dim>
					<dim>512</dim>
				</port>
			</input>
			<output>
				<port id="2" names="670" precision="FP32">
					<dim>1</dim>
					<dim>16</dim>
					<dim>512</dim>
				</port>
			</output>
		</layer>
		<layer id="471" name="672/1_port_transpose10784_const" type="Const" version="opset1">
			<data element_type="f32" offset="29417924" shape="400,512" size="819200"/>
			<output>
				<port id="0" names="671" precision="FP32">
					<dim>400</dim>
					<dim>512</dim>
				</port>
			</output>
		</layer>
		<layer id="472" name="672" type="MatMul" version="opset1">
			<data transpose_a="false" transpose_b="true"/>
			<input>
				<port id="0">
					<dim>1</dim>
					<dim>16</dim>
					<dim>512</dim>
				</port>
				<port id="1">
					<dim>400</dim>
					<dim>512</dim>
				</port>
			</input>
			<output>
				<port id="2" names="672" precision="FP32">
					<dim>1</dim>
					<dim>16</dim>
					<dim>400</dim>
				</port>
			</output>
		</layer>
		<layer id="473" name="247/EltwiseUnsqueeze7244_const" type="Const" version="opset1">
			<data element_type="f32" offset="30237124" shape="1,1,400" size="1600"/>
			<output>
				<port id="0" names="247" precision="FP32">
					<dim>1</dim>
					<dim>1</dim>
					<dim>400</dim>
				</port>
			</output>
		</layer>
		<layer id="474" name="673" type="Add" version="opset1">
			<data auto_broadcast="numpy"/>
			<input>
				<port id="0">
					<dim>1</dim>
					<dim>16</dim>
					<dim>400</dim>
				</port>
				<port id="1">
					<dim>1</dim>
					<dim>1</dim>
					<dim>400</dim>
				</port>
			</input>
			<output>
				<port id="2" names="673" precision="FP32">
					<dim>1</dim>
					<dim>16</dim>
					<dim>400</dim>
				</port>
			</output>
		</layer>
		<layer id="475" name="674/Cast_116038_const" type="Const" version="opset1">
			<data element_type="i64" offset="30238724" shape="1" size="8"/>
			<output>
				<port id="0" precision="I64">
					<dim>1</dim>
				</port>
			</output>
		</layer>
		<layer id="476" name="674" type="ReduceMean" version="opset1">
			<data keep_dims="false"/>
			<input>
				<port id="0">
					<dim>1</dim>
					<dim>16</dim>
					<dim>400</dim>
				</port>
				<port id="1">
					<dim>1</dim>
				</port>
			</input>
			<output>
				<port id="2" names="674" precision="FP32">
					<dim>1</dim>
					<dim>400</dim>
				</port>
			</output>
		</layer>
		<layer id="477" name="674/sink_port_0" type="Result" version="opset1">
			<input>
				<port id="0">
					<dim>1</dim>
					<dim>400</dim>
				</port>
			</input>
		</layer>
	</layers>
	<edges>
		<edge from-layer="0" from-port="0" to-layer="2" to-port="0"/>
		<edge from-layer="1" from-port="0" to-layer="2" to-port="1"/>
		<edge from-layer="2" from-port="2" to-layer="4" to-port="0"/>
		<edge from-layer="3" from-port="0" to-layer="4" to-port="1"/>
		<edge from-layer="2" from-port="2" to-layer="7" to-port="0"/>
		<edge from-layer="7" from-port="1" to-layer="10" to-port="0"/>
		<edge from-layer="8" from-port="0" to-layer="10" to-port="1"/>
		<edge from-layer="9" from-port="0" to-layer="10" to-port="2"/>
		<edge from-layer="10" from-port="3" to-layer="12" to-port="0"/>
		<edge from-layer="11" from-port="0" to-layer="12" to-port="1"/>
		<edge from-layer="5" from-port="0" to-layer="13" to-port="0"/>
		<edge from-layer="6" from-port="0" to-layer="13" to-port="1"/>
		<edge from-layer="12" from-port="2" to-layer="13" to-port="2"/>
		<edge from-layer="4" from-port="2" to-layer="14" to-port="0"/>
		<edge from-layer="13" from-port="3" to-layer="14" to-port="1"/>
		<edge from-layer="14" from-port="2" to-layer="16" to-port="0"/>
		<edge from-layer="15" from-port="0" to-layer="16" to-port="1"/>
		<edge from-layer="2" from-port="2" to-layer="18" to-port="0"/>
		<edge from-layer="18" from-port="1" to-layer="21" to-port="0"/>
		<edge from-layer="19" from-port="0" to-layer="21" to-port="1"/>
		<edge from-layer="20" from-port="0" to-layer="21" to-port="2"/>
		<edge from-layer="21" from-port="3" to-layer="23" to-port="0"/>
		<edge from-layer="22" from-port="0" to-layer="23" to-port="1"/>
		<edge from-layer="17" from-port="0" to-layer="25" to-port="0"/>
		<edge from-layer="23" from-port="2" to-layer="25" to-port="1"/>
		<edge from-layer="24" from-port="0" to-layer="25" to-port="2"/>
		<edge from-layer="16" from-port="2" to-layer="26" to-port="0"/>
		<edge from-layer="25" from-port="3" to-layer="26" to-port="1"/>
		<edge from-layer="2" from-port="2" to-layer="28" to-port="0"/>
		<edge from-layer="27" from-port="0" to-layer="28" to-port="1"/>
		<edge from-layer="10" from-port="3" to-layer="32" to-port="0"/>
		<edge from-layer="31" from-port="0" to-layer="32" to-port="1"/>
		<edge from-layer="29" from-port="0" to-layer="33" to-port="0"/>
		<edge from-layer="30" from-port="0" to-layer="33" to-port="1"/>
		<edge from-layer="32" from-port="2" to-layer="33" to-port="2"/>
		<edge from-layer="28" from-port="2" to-layer="34" to-port="0"/>
		<edge from-layer="33" from-port="3" to-layer="34" to-port="1"/>
		<edge from-layer="34" from-port="2" to-layer="36" to-port="0"/>
		<edge from-layer="35" from-port="0" to-layer="36" to-port="1"/>
		<edge from-layer="2" from-port="2" to-layer="38" to-port="0"/>
		<edge from-layer="38" from-port="1" to-layer="41" to-port="0"/>
		<edge from-layer="39" from-port="0" to-layer="41" to-port="1"/>
		<edge from-layer="40" from-port="0" to-layer="41" to-port="2"/>
		<edge from-layer="41" from-port="3" to-layer="43" to-port="0"/>
		<edge from-layer="42" from-port="0" to-layer="43" to-port="1"/>
		<edge from-layer="37" from-port="0" to-layer="45" to-port="0"/>
		<edge from-layer="43" from-port="2" to-layer="45" to-port="1"/>
		<edge from-layer="44" from-port="0" to-layer="45" to-port="2"/>
		<edge from-layer="36" from-port="2" to-layer="46" to-port="0"/>
		<edge from-layer="45" from-port="3" to-layer="46" to-port="1"/>
		<edge from-layer="46" from-port="2" to-layer="48" to-port="0"/>
		<edge from-layer="47" from-port="0" to-layer="48" to-port="1"/>
		<edge from-layer="48" from-port="2" to-layer="50" to-port="0"/>
		<edge from-layer="49" from-port="0" to-layer="50" to-port="1"/>
		<edge from-layer="26" from-port="2" to-layer="51" to-port="0"/>
		<edge from-layer="50" from-port="2" to-layer="51" to-port="1"/>
		<edge from-layer="51" from-port="2" to-layer="52" to-port="0"/>
		<edge from-layer="52" from-port="1" to-layer="55" to-port="0"/>
		<edge from-layer="53" from-port="0" to-layer="55" to-port="1"/>
		<edge from-layer="54" from-port="0" to-layer="55" to-port="2"/>
		<edge from-layer="51" from-port="2" to-layer="56" to-port="0"/>
		<edge from-layer="56" from-port="1" to-layer="59" to-port="0"/>
		<edge from-layer="57" from-port="0" to-layer="59" to-port="1"/>
		<edge from-layer="58" from-port="0" to-layer="59" to-port="2"/>
		<edge from-layer="55" from-port="3" to-layer="60" to-port="0"/>
		<edge from-layer="59" from-port="3" to-layer="60" to-port="1"/>
		<edge from-layer="60" from-port="2" to-layer="62" to-port="0"/>
		<edge from-layer="61" from-port="0" to-layer="62" to-port="1"/>
		<edge from-layer="62" from-port="2" to-layer="64" to-port="0"/>
		<edge from-layer="63" from-port="0" to-layer="64" to-port="1"/>
		<edge from-layer="51" from-port="2" to-layer="65" to-port="0"/>
		<edge from-layer="64" from-port="2" to-layer="65" to-port="1"/>
		<edge from-layer="65" from-port="2" to-layer="67" to-port="0"/>
		<edge from-layer="66" from-port="0" to-layer="67" to-port="1"/>
		<edge from-layer="67" from-port="2" to-layer="68" to-port="0"/>
		<edge from-layer="65" from-port="2" to-layer="69" to-port="0"/>
		<edge from-layer="68" from-port="1" to-layer="70" to-port="0"/>
		<edge from-layer="69" from-port="1" to-layer="70" to-port="1"/>
		<edge from-layer="55" from-port="3" to-layer="72" to-port="0"/>
		<edge from-layer="71" from-port="0" to-layer="72" to-port="1"/>
		<edge from-layer="59" from-port="3" to-layer="74" to-port="0"/>
		<edge from-layer="73" from-port="0" to-layer="74" to-port="1"/>
		<edge from-layer="72" from-port="2" to-layer="76" to-port="0"/>
		<edge from-layer="74" from-port="2" to-layer="76" to-port="1"/>
		<edge from-layer="75" from-port="0" to-layer="76" to-port="2"/>
		<edge from-layer="70" from-port="2" to-layer="77" to-port="0"/>
		<edge from-layer="76" from-port="3" to-layer="77" to-port="1"/>
		<edge from-layer="2" from-port="2" to-layer="79" to-port="0"/>
		<edge from-layer="78" from-port="0" to-layer="79" to-port="1"/>
		<edge from-layer="10" from-port="3" to-layer="83" to-port="0"/>
		<edge from-layer="82" from-port="0" to-layer="83" to-port="1"/>
		<edge from-layer="80" from-port="0" to-layer="84" to-port="0"/>
		<edge from-layer="81" from-port="0" to-layer="84" to-port="1"/>
		<edge from-layer="83" from-port="2" to-layer="84" to-port="2"/>
		<edge from-layer="79" from-port="2" to-layer="85" to-port="0"/>
		<edge from-layer="84" from-port="3" to-layer="85" to-port="1"/>
		<edge from-layer="85" from-port="2" to-layer="87" to-port="0"/>
		<edge from-layer="86" from-port="0" to-layer="87" to-port="1"/>
		<edge from-layer="2" from-port="2" to-layer="89" to-port="0"/>
		<edge from-layer="89" from-port="1" to-layer="92" to-port="0"/>
		<edge from-layer="90" from-port="0" to-layer="92" to-port="1"/>
		<edge from-layer="91" from-port="0" to-layer="92" to-port="2"/>
		<edge from-layer="92" from-port="3" to-layer="94" to-port="0"/>
		<edge from-layer="93" from-port="0" to-layer="94" to-port="1"/>
		<edge from-layer="88" from-port="0" to-layer="96" to-port="0"/>
		<edge from-layer="94" from-port="2" to-layer="96" to-port="1"/>
		<edge from-layer="95" from-port="0" to-layer="96" to-port="2"/>
		<edge from-layer="87" from-port="2" to-layer="97" to-port="0"/>
		<edge from-layer="96" from-port="3" to-layer="97" to-port="1"/>
		<edge from-layer="77" from-port="2" to-layer="98" to-port="0"/>
		<edge from-layer="97" from-port="2" to-layer="98" to-port="1"/>
		<edge from-layer="98" from-port="2" to-layer="100" to-port="0"/>
		<edge from-layer="99" from-port="0" to-layer="100" to-port="1"/>
		<edge from-layer="100" from-port="2" to-layer="102" to-port="0"/>
		<edge from-layer="101" from-port="0" to-layer="102" to-port="1"/>
		<edge from-layer="102" from-port="2" to-layer="104" to-port="0"/>
		<edge from-layer="103" from-port="0" to-layer="104" to-port="1"/>
		<edge from-layer="104" from-port="2" to-layer="105" to-port="0"/>
		<edge from-layer="2" from-port="2" to-layer="105" to-port="1"/>
		<edge from-layer="105" from-port="2" to-layer="107" to-port="0"/>
		<edge from-layer="106" from-port="0" to-layer="107" to-port="1"/>
		<edge from-layer="107" from-port="2" to-layer="109" to-port="0"/>
		<edge from-layer="108" from-port="0" to-layer="109" to-port="1"/>
		<edge from-layer="109" from-port="2" to-layer="111" to-port="0"/>
		<edge from-layer="110" from-port="0" to-layer="111" to-port="1"/>
		<edge from-layer="111" from-port="2" to-layer="112" to-port="0"/>
		<edge from-layer="112" from-port="1" to-layer="114" to-port="0"/>
		<edge from-layer="113" from-port="0" to-layer="114" to-port="1"/>
		<edge from-layer="114" from-port="2" to-layer="116" to-port="0"/>
		<edge from-layer="115" from-port="0" to-layer="116" to-port="1"/>
		<edge from-layer="116" from-port="2" to-layer="118" to-port="0"/>
		<edge from-layer="117" from-port="0" to-layer="118" to-port="1"/>
		<edge from-layer="118" from-port="2" to-layer="119" to-port="0"/>
		<edge from-layer="105" from-port="2" to-layer="119" to-port="1"/>
		<edge from-layer="119" from-port="2" to-layer="121" to-port="0"/>
		<edge from-layer="120" from-port="0" to-layer="121" to-port="1"/>
		<edge from-layer="119" from-port="2" to-layer="124" to-port="0"/>
		<edge from-layer="124" from-port="1" to-layer="127" to-port="0"/>
		<edge from-layer="125" from-port="0" to-layer="127" to-port="1"/>
		<edge from-layer="126" from-port="0" to-layer="127" to-port="2"/>
		<edge from-layer="127" from-port="3" to-layer="129" to-port="0"/>
		<edge from-layer="128" from-port="0" to-layer="129" to-port="1"/>
		<edge from-layer="122" from-port="0" to-layer="130" to-port="0"/>
		<edge from-layer="123" from-port="0" to-layer="130" to-port="1"/>
		<edge from-layer="129" from-port="2" to-layer="130" to-port="2"/>
		<edge from-layer="121" from-port="2" to-layer="131" to-port="0"/>
		<edge from-layer="130" from-port="3" to-layer="131" to-port="1"/>
		<edge from-layer="131" from-port="2" to-layer="133" to-port="0"/>
		<edge from-layer="132" from-port="0" to-layer="133" to-port="1"/>
		<edge from-layer="119" from-port="2" to-layer="135" to-port="0"/>
		<edge from-layer="135" from-port="1" to-layer="138" to-port="0"/>
		<edge from-layer="136" from-port="0" to-layer="138" to-port="1"/>
		<edge from-layer="137" from-port="0" to-layer="138" to-port="2"/>
		<edge from-layer="138" from-port="3" to-layer="140" to-port="0"/>
		<edge from-layer="139" from-port="0" to-layer="140" to-port="1"/>
		<edge from-layer="134" from-port="0" to-layer="142" to-port="0"/>
		<edge from-layer="140" from-port="2" to-layer="142" to-port="1"/>
		<edge from-layer="141" from-port="0" to-layer="142" to-port="2"/>
		<edge from-layer="133" from-port="2" to-layer="143" to-port="0"/>
		<edge from-layer="142" from-port="3" to-layer="143" to-port="1"/>
		<edge from-layer="119" from-port="2" to-layer="145" to-port="0"/>
		<edge from-layer="144" from-port="0" to-layer="145" to-port="1"/>
		<edge from-layer="127" from-port="3" to-layer="149" to-port="0"/>
		<edge from-layer="148" from-port="0" to-layer="149" to-port="1"/>
		<edge from-layer="146" from-port="0" to-layer="150" to-port="0"/>
		<edge from-layer="147" from-port="0" to-layer="150" to-port="1"/>
		<edge from-layer="149" from-port="2" to-layer="150" to-port="2"/>
		<edge from-layer="145" from-port="2" to-layer="151" to-port="0"/>
		<edge from-layer="150" from-port="3" to-layer="151" to-port="1"/>
		<edge from-layer="151" from-port="2" to-layer="153" to-port="0"/>
		<edge from-layer="152" from-port="0" to-layer="153" to-port="1"/>
		<edge from-layer="119" from-port="2" to-layer="155" to-port="0"/>
		<edge from-layer="155" from-port="1" to-layer="158" to-port="0"/>
		<edge from-layer="156" from-port="0" to-layer="158" to-port="1"/>
		<edge from-layer="157" from-port="0" to-layer="158" to-port="2"/>
		<edge from-layer="158" from-port="3" to-layer="160" to-port="0"/>
		<edge from-layer="159" from-port="0" to-layer="160" to-port="1"/>
		<edge from-layer="154" from-port="0" to-layer="162" to-port="0"/>
		<edge from-layer="160" from-port="2" to-layer="162" to-port="1"/>
		<edge from-layer="161" from-port="0" to-layer="162" to-port="2"/>
		<edge from-layer="153" from-port="2" to-layer="163" to-port="0"/>
		<edge from-layer="162" from-port="3" to-layer="163" to-port="1"/>
		<edge from-layer="163" from-port="2" to-layer="165" to-port="0"/>
		<edge from-layer="164" from-port="0" to-layer="165" to-port="1"/>
		<edge from-layer="165" from-port="2" to-layer="167" to-port="0"/>
		<edge from-layer="166" from-port="0" to-layer="167" to-port="1"/>
		<edge from-layer="143" from-port="2" to-layer="168" to-port="0"/>
		<edge from-layer="167" from-port="2" to-layer="168" to-port="1"/>
		<edge from-layer="168" from-port="2" to-layer="169" to-port="0"/>
		<edge from-layer="169" from-port="1" to-layer="172" to-port="0"/>
		<edge from-layer="170" from-port="0" to-layer="172" to-port="1"/>
		<edge from-layer="171" from-port="0" to-layer="172" to-port="2"/>
		<edge from-layer="168" from-port="2" to-layer="173" to-port="0"/>
		<edge from-layer="173" from-port="1" to-layer="176" to-port="0"/>
		<edge from-layer="174" from-port="0" to-layer="176" to-port="1"/>
		<edge from-layer="175" from-port="0" to-layer="176" to-port="2"/>
		<edge from-layer="172" from-port="3" to-layer="177" to-port="0"/>
		<edge from-layer="176" from-port="3" to-layer="177" to-port="1"/>
		<edge from-layer="177" from-port="2" to-layer="179" to-port="0"/>
		<edge from-layer="178" from-port="0" to-layer="179" to-port="1"/>
		<edge from-layer="179" from-port="2" to-layer="181" to-port="0"/>
		<edge from-layer="180" from-port="0" to-layer="181" to-port="1"/>
		<edge from-layer="168" from-port="2" to-layer="182" to-port="0"/>
		<edge from-layer="181" from-port="2" to-layer="182" to-port="1"/>
		<edge from-layer="182" from-port="2" to-layer="184" to-port="0"/>
		<edge from-layer="183" from-port="0" to-layer="184" to-port="1"/>
		<edge from-layer="184" from-port="2" to-layer="185" to-port="0"/>
		<edge from-layer="182" from-port="2" to-layer="186" to-port="0"/>
		<edge from-layer="185" from-port="1" to-layer="187" to-port="0"/>
		<edge from-layer="186" from-port="1" to-layer="187" to-port="1"/>
		<edge from-layer="172" from-port="3" to-layer="189" to-port="0"/>
		<edge from-layer="188" from-port="0" to-layer="189" to-port="1"/>
		<edge from-layer="176" from-port="3" to-layer="191" to-port="0"/>
		<edge from-layer="190" from-port="0" to-layer="191" to-port="1"/>
		<edge from-layer="189" from-port="2" to-layer="193" to-port="0"/>
		<edge from-layer="191" from-port="2" to-layer="193" to-port="1"/>
		<edge from-layer="192" from-port="0" to-layer="193" to-port="2"/>
		<edge from-layer="187" from-port="2" to-layer="194" to-port="0"/>
		<edge from-layer="193" from-port="3" to-layer="194" to-port="1"/>
		<edge from-layer="119" from-port="2" to-layer="196" to-port="0"/>
		<edge from-layer="195" from-port="0" to-layer="196" to-port="1"/>
		<edge from-layer="127" from-port="3" to-layer="200" to-port="0"/>
		<edge from-layer="199" from-port="0" to-layer="200" to-port="1"/>
		<edge from-layer="197" from-port="0" to-layer="201" to-port="0"/>
		<edge from-layer="198" from-port="0" to-layer="201" to-port="1"/>
		<edge from-layer="200" from-port="2" to-layer="201" to-port="2"/>
		<edge from-layer="196" from-port="2" to-layer="202" to-port="0"/>
		<edge from-layer="201" from-port="3" to-layer="202" to-port="1"/>
		<edge from-layer="202" from-port="2" to-layer="204" to-port="0"/>
		<edge from-layer="203" from-port="0" to-layer="204" to-port="1"/>
		<edge from-layer="119" from-port="2" to-layer="206" to-port="0"/>
		<edge from-layer="206" from-port="1" to-layer="209" to-port="0"/>
		<edge from-layer="207" from-port="0" to-layer="209" to-port="1"/>
		<edge from-layer="208" from-port="0" to-layer="209" to-port="2"/>
		<edge from-layer="209" from-port="3" to-layer="211" to-port="0"/>
		<edge from-layer="210" from-port="0" to-layer="211" to-port="1"/>
		<edge from-layer="205" from-port="0" to-layer="213" to-port="0"/>
		<edge from-layer="211" from-port="2" to-layer="213" to-port="1"/>
		<edge from-layer="212" from-port="0" to-layer="213" to-port="2"/>
		<edge from-layer="204" from-port="2" to-layer="214" to-port="0"/>
		<edge from-layer="213" from-port="3" to-layer="214" to-port="1"/>
		<edge from-layer="194" from-port="2" to-layer="215" to-port="0"/>
		<edge from-layer="214" from-port="2" to-layer="215" to-port="1"/>
		<edge from-layer="215" from-port="2" to-layer="217" to-port="0"/>
		<edge from-layer="216" from-port="0" to-layer="217" to-port="1"/>
		<edge from-layer="217" from-port="2" to-layer="219" to-port="0"/>
		<edge from-layer="218" from-port="0" to-layer="219" to-port="1"/>
		<edge from-layer="219" from-port="2" to-layer="221" to-port="0"/>
		<edge from-layer="220" from-port="0" to-layer="221" to-port="1"/>
		<edge from-layer="221" from-port="2" to-layer="222" to-port="0"/>
		<edge from-layer="119" from-port="2" to-layer="222" to-port="1"/>
		<edge from-layer="222" from-port="2" to-layer="224" to-port="0"/>
		<edge from-layer="223" from-port="0" to-layer="224" to-port="1"/>
		<edge from-layer="224" from-port="2" to-layer="226" to-port="0"/>
		<edge from-layer="225" from-port="0" to-layer="226" to-port="1"/>
		<edge from-layer="226" from-port="2" to-layer="228" to-port="0"/>
		<edge from-layer="227" from-port="0" to-layer="228" to-port="1"/>
		<edge from-layer="228" from-port="2" to-layer="229" to-port="0"/>
		<edge from-layer="229" from-port="1" to-layer="231" to-port="0"/>
		<edge from-layer="230" from-port="0" to-layer="231" to-port="1"/>
		<edge from-layer="231" from-port="2" to-layer="233" to-port="0"/>
		<edge from-layer="232" from-port="0" to-layer="233" to-port="1"/>
		<edge from-layer="233" from-port="2" to-layer="235" to-port="0"/>
		<edge from-layer="234" from-port="0" to-layer="235" to-port="1"/>
		<edge from-layer="235" from-port="2" to-layer="236" to-port="0"/>
		<edge from-layer="222" from-port="2" to-layer="236" to-port="1"/>
		<edge from-layer="236" from-port="2" to-layer="238" to-port="0"/>
		<edge from-layer="237" from-port="0" to-layer="238" to-port="1"/>
		<edge from-layer="236" from-port="2" to-layer="241" to-port="0"/>
		<edge from-layer="241" from-port="1" to-layer="244" to-port="0"/>
		<edge from-layer="242" from-port="0" to-layer="244" to-port="1"/>
		<edge from-layer="243" from-port="0" to-layer="244" to-port="2"/>
		<edge from-layer="244" from-port="3" to-layer="246" to-port="0"/>
		<edge from-layer="245" from-port="0" to-layer="246" to-port="1"/>
		<edge from-layer="239" from-port="0" to-layer="247" to-port="0"/>
		<edge from-layer="240" from-port="0" to-layer="247" to-port="1"/>
		<edge from-layer="246" from-port="2" to-layer="247" to-port="2"/>
		<edge from-layer="238" from-port="2" to-layer="248" to-port="0"/>
		<edge from-layer="247" from-port="3" to-layer="248" to-port="1"/>
		<edge from-layer="248" from-port="2" to-layer="250" to-port="0"/>
		<edge from-layer="249" from-port="0" to-layer="250" to-port="1"/>
		<edge from-layer="236" from-port="2" to-layer="252" to-port="0"/>
		<edge from-layer="252" from-port="1" to-layer="255" to-port="0"/>
		<edge from-layer="253" from-port="0" to-layer="255" to-port="1"/>
		<edge from-layer="254" from-port="0" to-layer="255" to-port="2"/>
		<edge from-layer="255" from-port="3" to-layer="257" to-port="0"/>
		<edge from-layer="256" from-port="0" to-layer="257" to-port="1"/>
		<edge from-layer="251" from-port="0" to-layer="259" to-port="0"/>
		<edge from-layer="257" from-port="2" to-layer="259" to-port="1"/>
		<edge from-layer="258" from-port="0" to-layer="259" to-port="2"/>
		<edge from-layer="250" from-port="2" to-layer="260" to-port="0"/>
		<edge from-layer="259" from-port="3" to-layer="260" to-port="1"/>
		<edge from-layer="236" from-port="2" to-layer="262" to-port="0"/>
		<edge from-layer="261" from-port="0" to-layer="262" to-port="1"/>
		<edge from-layer="244" from-port="3" to-layer="266" to-port="0"/>
		<edge from-layer="265" from-port="0" to-layer="266" to-port="1"/>
		<edge from-layer="263" from-port="0" to-layer="267" to-port="0"/>
		<edge from-layer="264" from-port="0" to-layer="267" to-port="1"/>
		<edge from-layer="266" from-port="2" to-layer="267" to-port="2"/>
		<edge from-layer="262" from-port="2" to-layer="268" to-port="0"/>
		<edge from-layer="267" from-port="3" to-layer="268" to-port="1"/>
		<edge from-layer="268" from-port="2" to-layer="270" to-port="0"/>
		<edge from-layer="269" from-port="0" to-layer="270" to-port="1"/>
		<edge from-layer="236" from-port="2" to-layer="272" to-port="0"/>
		<edge from-layer="272" from-port="1" to-layer="275" to-port="0"/>
		<edge from-layer="273" from-port="0" to-layer="275" to-port="1"/>
		<edge from-layer="274" from-port="0" to-layer="275" to-port="2"/>
		<edge from-layer="275" from-port="3" to-layer="277" to-port="0"/>
		<edge from-layer="276" from-port="0" to-layer="277" to-port="1"/>
		<edge from-layer="271" from-port="0" to-layer="279" to-port="0"/>
		<edge from-layer="277" from-port="2" to-layer="279" to-port="1"/>
		<edge from-layer="278" from-port="0" to-layer="279" to-port="2"/>
		<edge from-layer="270" from-port="2" to-layer="280" to-port="0"/>
		<edge from-layer="279" from-port="3" to-layer="280" to-port="1"/>
		<edge from-layer="280" from-port="2" to-layer="282" to-port="0"/>
		<edge from-layer="281" from-port="0" to-layer="282" to-port="1"/>
		<edge from-layer="282" from-port="2" to-layer="284" to-port="0"/>
		<edge from-layer="283" from-port="0" to-layer="284" to-port="1"/>
		<edge from-layer="260" from-port="2" to-layer="285" to-port="0"/>
		<edge from-layer="284" from-port="2" to-layer="285" to-port="1"/>
		<edge from-layer="285" from-port="2" to-layer="286" to-port="0"/>
		<edge from-layer="286" from-port="1" to-layer="289" to-port="0"/>
		<edge from-layer="287" from-port="0" to-layer="289" to-port="1"/>
		<edge from-layer="288" from-port="0" to-layer="289" to-port="2"/>
		<edge from-layer="285" from-port="2" to-layer="290" to-port="0"/>
		<edge from-layer="290" from-port="1" to-layer="293" to-port="0"/>
		<edge from-layer="291" from-port="0" to-layer="293" to-port="1"/>
		<edge from-layer="292" from-port="0" to-layer="293" to-port="2"/>
		<edge from-layer="289" from-port="3" to-layer="294" to-port="0"/>
		<edge from-layer="293" from-port="3" to-layer="294" to-port="1"/>
		<edge from-layer="294" from-port="2" to-layer="296" to-port="0"/>
		<edge from-layer="295" from-port="0" to-layer="296" to-port="1"/>
		<edge from-layer="296" from-port="2" to-layer="298" to-port="0"/>
		<edge from-layer="297" from-port="0" to-layer="298" to-port="1"/>
		<edge from-layer="285" from-port="2" to-layer="299" to-port="0"/>
		<edge from-layer="298" from-port="2" to-layer="299" to-port="1"/>
		<edge from-layer="299" from-port="2" to-layer="301" to-port="0"/>
		<edge from-layer="300" from-port="0" to-layer="301" to-port="1"/>
		<edge from-layer="301" from-port="2" to-layer="302" to-port="0"/>
		<edge from-layer="299" from-port="2" to-layer="303" to-port="0"/>
		<edge from-layer="302" from-port="1" to-layer="304" to-port="0"/>
		<edge from-layer="303" from-port="1" to-layer="304" to-port="1"/>
		<edge from-layer="289" from-port="3" to-layer="306" to-port="0"/>
		<edge from-layer="305" from-port="0" to-layer="306" to-port="1"/>
		<edge from-layer="293" from-port="3" to-layer="308" to-port="0"/>
		<edge from-layer="307" from-port="0" to-layer="308" to-port="1"/>
		<edge from-layer="306" from-port="2" to-layer="310" to-port="0"/>
		<edge from-layer="308" from-port="2" to-layer="310" to-port="1"/>
		<edge from-layer="309" from-port="0" to-layer="310" to-port="2"/>
		<edge from-layer="304" from-port="2" to-layer="311" to-port="0"/>
		<edge from-layer="310" from-port="3" to-layer="311" to-port="1"/>
		<edge from-layer="236" from-port="2" to-layer="313" to-port="0"/>
		<edge from-layer="312" from-port="0" to-layer="313" to-port="1"/>
		<edge from-layer="244" from-port="3" to-layer="317" to-port="0"/>
		<edge from-layer="316" from-port="0" to-layer="317" to-port="1"/>
		<edge from-layer="314" from-port="0" to-layer="318" to-port="0"/>
		<edge from-layer="315" from-port="0" to-layer="318" to-port="1"/>
		<edge from-layer="317" from-port="2" to-layer="318" to-port="2"/>
		<edge from-layer="313" from-port="2" to-layer="319" to-port="0"/>
		<edge from-layer="318" from-port="3" to-layer="319" to-port="1"/>
		<edge from-layer="319" from-port="2" to-layer="321" to-port="0"/>
		<edge from-layer="320" from-port="0" to-layer="321" to-port="1"/>
		<edge from-layer="236" from-port="2" to-layer="323" to-port="0"/>
		<edge from-layer="323" from-port="1" to-layer="326" to-port="0"/>
		<edge from-layer="324" from-port="0" to-layer="326" to-port="1"/>
		<edge from-layer="325" from-port="0" to-layer="326" to-port="2"/>
		<edge from-layer="326" from-port="3" to-layer="328" to-port="0"/>
		<edge from-layer="327" from-port="0" to-layer="328" to-port="1"/>
		<edge from-layer="322" from-port="0" to-layer="330" to-port="0"/>
		<edge from-layer="328" from-port="2" to-layer="330" to-port="1"/>
		<edge from-layer="329" from-port="0" to-layer="330" to-port="2"/>
		<edge from-layer="321" from-port="2" to-layer="331" to-port="0"/>
		<edge from-layer="330" from-port="3" to-layer="331" to-port="1"/>
		<edge from-layer="311" from-port="2" to-layer="332" to-port="0"/>
		<edge from-layer="331" from-port="2" to-layer="332" to-port="1"/>
		<edge from-layer="332" from-port="2" to-layer="334" to-port="0"/>
		<edge from-layer="333" from-port="0" to-layer="334" to-port="1"/>
		<edge from-layer="334" from-port="2" to-layer="336" to-port="0"/>
		<edge from-layer="335" from-port="0" to-layer="336" to-port="1"/>
		<edge from-layer="336" from-port="2" to-layer="338" to-port="0"/>
		<edge from-layer="337" from-port="0" to-layer="338" to-port="1"/>
		<edge from-layer="338" from-port="2" to-layer="339" to-port="0"/>
		<edge from-layer="236" from-port="2" to-layer="339" to-port="1"/>
		<edge from-layer="339" from-port="2" to-layer="341" to-port="0"/>
		<edge from-layer="340" from-port="0" to-layer="341" to-port="1"/>
		<edge from-layer="341" from-port="2" to-layer="343" to-port="0"/>
		<edge from-layer="342" from-port="0" to-layer="343" to-port="1"/>
		<edge from-layer="343" from-port="2" to-layer="345" to-port="0"/>
		<edge from-layer="344" from-port="0" to-layer="345" to-port="1"/>
		<edge from-layer="345" from-port="2" to-layer="346" to-port="0"/>
		<edge from-layer="346" from-port="1" to-layer="348" to-port="0"/>
		<edge from-layer="347" from-port="0" to-layer="348" to-port="1"/>
		<edge from-layer="348" from-port="2" to-layer="350" to-port="0"/>
		<edge from-layer="349" from-port="0" to-layer="350" to-port="1"/>
		<edge from-layer="350" from-port="2" to-layer="352" to-port="0"/>
		<edge from-layer="351" from-port="0" to-layer="352" to-port="1"/>
		<edge from-layer="352" from-port="2" to-layer="353" to-port="0"/>
		<edge from-layer="339" from-port="2" to-layer="353" to-port="1"/>
		<edge from-layer="353" from-port="2" to-layer="355" to-port="0"/>
		<edge from-layer="354" from-port="0" to-layer="355" to-port="1"/>
		<edge from-layer="353" from-port="2" to-layer="358" to-port="0"/>
		<edge from-layer="358" from-port="1" to-layer="361" to-port="0"/>
		<edge from-layer="359" from-port="0" to-layer="361" to-port="1"/>
		<edge from-layer="360" from-port="0" to-layer="361" to-port="2"/>
		<edge from-layer="361" from-port="3" to-layer="363" to-port="0"/>
		<edge from-layer="362" from-port="0" to-layer="363" to-port="1"/>
		<edge from-layer="356" from-port="0" to-layer="364" to-port="0"/>
		<edge from-layer="357" from-port="0" to-layer="364" to-port="1"/>
		<edge from-layer="363" from-port="2" to-layer="364" to-port="2"/>
		<edge from-layer="355" from-port="2" to-layer="365" to-port="0"/>
		<edge from-layer="364" from-port="3" to-layer="365" to-port="1"/>
		<edge from-layer="365" from-port="2" to-layer="367" to-port="0"/>
		<edge from-layer="366" from-port="0" to-layer="367" to-port="1"/>
		<edge from-layer="353" from-port="2" to-layer="369" to-port="0"/>
		<edge from-layer="369" from-port="1" to-layer="372" to-port="0"/>
		<edge from-layer="370" from-port="0" to-layer="372" to-port="1"/>
		<edge from-layer="371" from-port="0" to-layer="372" to-port="2"/>
		<edge from-layer="372" from-port="3" to-layer="374" to-port="0"/>
		<edge from-layer="373" from-port="0" to-layer="374" to-port="1"/>
		<edge from-layer="368" from-port="0" to-layer="376" to-port="0"/>
		<edge from-layer="374" from-port="2" to-layer="376" to-port="1"/>
		<edge from-layer="375" from-port="0" to-layer="376" to-port="2"/>
		<edge from-layer="367" from-port="2" to-layer="377" to-port="0"/>
		<edge from-layer="376" from-port="3" to-layer="377" to-port="1"/>
		<edge from-layer="353" from-port="2" to-layer="379" to-port="0"/>
		<edge from-layer="378" from-port="0" to-layer="379" to-port="1"/>
		<edge from-layer="361" from-port="3" to-layer="383" to-port="0"/>
		<edge from-layer="382" from-port="0" to-layer="383" to-port="1"/>
		<edge from-layer="380" from-port="0" to-layer="384" to-port="0"/>
		<edge from-layer="381" from-port="0" to-layer="384" to-port="1"/>
		<edge from-layer="383" from-port="2" to-layer="384" to-port="2"/>
		<edge from-layer="379" from-port="2" to-layer="385" to-port="0"/>
		<edge from-layer="384" from-port="3" to-layer="385" to-port="1"/>
		<edge from-layer="385" from-port="2" to-layer="387" to-port="0"/>
		<edge from-layer="386" from-port="0" to-layer="387" to-port="1"/>
		<edge from-layer="353" from-port="2" to-layer="389" to-port="0"/>
		<edge from-layer="389" from-port="1" to-layer="392" to-port="0"/>
		<edge from-layer="390" from-port="0" to-layer="392" to-port="1"/>
		<edge from-layer="391" from-port="0" to-layer="392" to-port="2"/>
		<edge from-layer="392" from-port="3" to-layer="394" to-port="0"/>
		<edge from-layer="393" from-port="0" to-layer="394" to-port="1"/>
		<edge from-layer="388" from-port="0" to-layer="396" to-port="0"/>
		<edge from-layer="394" from-port="2" to-layer="396" to-port="1"/>
		<edge from-layer="395" from-port="0" to-layer="396" to-port="2"/>
		<edge from-layer="387" from-port="2" to-layer="397" to-port="0"/>
		<edge from-layer="396" from-port="3" to-layer="397" to-port="1"/>
		<edge from-layer="397" from-port="2" to-layer="399" to-port="0"/>
		<edge from-layer="398" from-port="0" to-layer="399" to-port="1"/>
		<edge from-layer="399" from-port="2" to-layer="401" to-port="0"/>
		<edge from-layer="400" from-port="0" to-layer="401" to-port="1"/>
		<edge from-layer="377" from-port="2" to-layer="402" to-port="0"/>
		<edge from-layer="401" from-port="2" to-layer="402" to-port="1"/>
		<edge from-layer="402" from-port="2" to-layer="403" to-port="0"/>
		<edge from-layer="403" from-port="1" to-layer="406" to-port="0"/>
		<edge from-layer="404" from-port="0" to-layer="406" to-port="1"/>
		<edge from-layer="405" from-port="0" to-layer="406" to-port="2"/>
		<edge from-layer="402" from-port="2" to-layer="407" to-port="0"/>
		<edge from-layer="407" from-port="1" to-layer="410" to-port="0"/>
		<edge from-layer="408" from-port="0" to-layer="410" to-port="1"/>
		<edge from-layer="409" from-port="0" to-layer="410" to-port="2"/>
		<edge from-layer="406" from-port="3" to-layer="411" to-port="0"/>
		<edge from-layer="410" from-port="3" to-layer="411" to-port="1"/>
		<edge from-layer="411" from-port="2" to-layer="413" to-port="0"/>
		<edge from-layer="412" from-port="0" to-layer="413" to-port="1"/>
		<edge from-layer="413" from-port="2" to-layer="415" to-port="0"/>
		<edge from-layer="414" from-port="0" to-layer="415" to-port="1"/>
		<edge from-layer="402" from-port="2" to-layer="416" to-port="0"/>
		<edge from-layer="415" from-port="2" to-layer="416" to-port="1"/>
		<edge from-layer="416" from-port="2" to-layer="418" to-port="0"/>
		<edge from-layer="417" from-port="0" to-layer="418" to-port="1"/>
		<edge from-layer="418" from-port="2" to-layer="419" to-port="0"/>
		<edge from-layer="416" from-port="2" to-layer="420" to-port="0"/>
		<edge from-layer="419" from-port="1" to-layer="421" to-port="0"/>
		<edge from-layer="420" from-port="1" to-layer="421" to-port="1"/>
		<edge from-layer="406" from-port="3" to-layer="423" to-port="0"/>
		<edge from-layer="422" from-port="0" to-layer="423" to-port="1"/>
		<edge from-layer="410" from-port="3" to-layer="425" to-port="0"/>
		<edge from-layer="424" from-port="0" to-layer="425" to-port="1"/>
		<edge from-layer="423" from-port="2" to-layer="427" to-port="0"/>
		<edge from-layer="425" from-port="2" to-layer="427" to-port="1"/>
		<edge from-layer="426" from-port="0" to-layer="427" to-port="2"/>
		<edge from-layer="421" from-port="2" to-layer="428" to-port="0"/>
		<edge from-layer="427" from-port="3" to-layer="428" to-port="1"/>
		<edge from-layer="353" from-port="2" to-layer="430" to-port="0"/>
		<edge from-layer="429" from-port="0" to-layer="430" to-port="1"/>
		<edge from-layer="361" from-port="3" to-layer="434" to-port="0"/>
		<edge from-layer="433" from-port="0" to-layer="434" to-port="1"/>
		<edge from-layer="431" from-port="0" to-layer="435" to-port="0"/>
		<edge from-layer="432" from-port="0" to-layer="435" to-port="1"/>
		<edge from-layer="434" from-port="2" to-layer="435" to-port="2"/>
		<edge from-layer="430" from-port="2" to-layer="436" to-port="0"/>
		<edge from-layer="435" from-port="3" to-layer="436" to-port="1"/>
		<edge from-layer="436" from-port="2" to-layer="438" to-port="0"/>
		<edge from-layer="437" from-port="0" to-layer="438" to-port="1"/>
		<edge from-layer="353" from-port="2" to-layer="440" to-port="0"/>
		<edge from-layer="440" from-port="1" to-layer="443" to-port="0"/>
		<edge from-layer="441" from-port="0" to-layer="443" to-port="1"/>
		<edge from-layer="442" from-port="0" to-layer="443" to-port="2"/>
		<edge from-layer="443" from-port="3" to-layer="445" to-port="0"/>
		<edge from-layer="444" from-port="0" to-layer="445" to-port="1"/>
		<edge from-layer="439" from-port="0" to-layer="447" to-port="0"/>
		<edge from-layer="445" from-port="2" to-layer="447" to-port="1"/>
		<edge from-layer="446" from-port="0" to-layer="447" to-port="2"/>
		<edge from-layer="438" from-port="2" to-layer="448" to-port="0"/>
		<edge from-layer="447" from-port="3" to-layer="448" to-port="1"/>
		<edge from-layer="428" from-port="2" to-layer="449" to-port="0"/>
		<edge from-layer="448" from-port="2" to-layer="449" to-port="1"/>
		<edge from-layer="449" from-port="2" to-layer="451" to-port="0"/>
		<edge from-layer="450" from-port="0" to-layer="451" to-port="1"/>
		<edge from-layer="451" from-port="2" to-layer="453" to-port="0"/>
		<edge from-layer="452" from-port="0" to-layer="453" to-port="1"/>
		<edge from-layer="453" from-port="2" to-layer="455" to-port="0"/>
		<edge from-layer="454" from-port="0" to-layer="455" to-port="1"/>
		<edge from-layer="455" from-port="2" to-layer="456" to-port="0"/>
		<edge from-layer="353" from-port="2" to-layer="456" to-port="1"/>
		<edge from-layer="456" from-port="2" to-layer="458" to-port="0"/>
		<edge from-layer="457" from-port="0" to-layer="458" to-port="1"/>
		<edge from-layer="458" from-port="2" to-layer="460" to-port="0"/>
		<edge from-layer="459" from-port="0" to-layer="460" to-port="1"/>
		<edge from-layer="460" from-port="2" to-layer="462" to-port="0"/>
		<edge from-layer="461" from-port="0" to-layer="462" to-port="1"/>
		<edge from-layer="462" from-port="2" to-layer="463" to-port="0"/>
		<edge from-layer="463" from-port="1" to-layer="465" to-port="0"/>
		<edge from-layer="464" from-port="0" to-layer="465" to-port="1"/>
		<edge from-layer="465" from-port="2" to-layer="467" to-port="0"/>
		<edge from-layer="466" from-port="0" to-layer="467" to-port="1"/>
		<edge from-layer="467" from-port="2" to-layer="469" to-port="0"/>
		<edge from-layer="468" from-port="0" to-layer="469" to-port="1"/>
		<edge from-layer="469" from-port="2" to-layer="470" to-port="0"/>
		<edge from-layer="456" from-port="2" to-layer="470" to-port="1"/>
		<edge from-layer="470" from-port="2" to-layer="472" to-port="0"/>
		<edge from-layer="471" from-port="0" to-layer="472" to-port="1"/>
		<edge from-layer="472" from-port="2" to-layer="474" to-port="0"/>
		<edge from-layer="473" from-port="0" to-layer="474" to-port="1"/>
		<edge from-layer="474" from-port="2" to-layer="476" to-port="0"/>
		<edge from-layer="475" from-port="0" to-layer="476" to-port="1"/>
		<edge from-layer="476" from-port="2" to-layer="477" to-port="0"/>
	</edges>
	<meta_data>
		<MO_version value="2021.3.0-2767-91fe355156e-releases/2021/3"/>
		<cli_parameters>
			<caffe_parser_path value="DIR"/>
			<data_type value="FP32"/>
			<disable_nhwc_to_nchw value="False"/>
			<disable_omitting_optional value="False"/>
			<disable_resnet_optimization value="False"/>
			<disable_weights_compression value="False"/>
			<enable_concat_optimization value="False"/>
			<enable_flattening_nested_params value="False"/>
			<enable_ssd_gluoncv value="False"/>
			<extensions value="DIR"/>
			<framework value="onnx"/>
			<freeze_placeholder_with_value value="{}"/>
			<generate_deprecated_IR_V7 value="False"/>
			<input value="0"/>
			<input_model value="DIR/action_recognition_0001_decoder.onnx"/>
			<input_model_is_text value="False"/>
			<input_shape value="[1,16,512]"/>
			<k value="DIR/CustomLayersMapping.xml"/>
			<keep_shape_ops value="True"/>
			<legacy_mxnet_model value="False"/>
			<log_level value="ERROR"/>
			<mean_scale_values value="{}"/>
			<mean_values value="()"/>
			<model_name value="action-recognition-0001-decoder"/>
			<output value="['674']"/>
			<output_dir value="DIR"/>
			<placeholder_data_types value="{}"/>
			<placeholder_shapes value="{'0': array([  1,  16, 512])}"/>
			<progress value="False"/>
			<remove_memory value="False"/>
			<remove_output_softmax value="False"/>
			<reverse_input_channels value="False"/>
			<save_params_from_nd value="False"/>
			<scale_values value="()"/>
			<silent value="False"/>
			<static_shape value="False"/>
			<stream_output value="False"/>
			<unset unset_cli_parameters="batch, counts, disable_fusing, disable_gfusing, finegrain_fusing, input_checkpoint, input_meta_graph, input_proto, input_symbol, mean_file, mean_file_offsets, move_to_preprocess, nd_prefix_name, pretrained_model_name, saved_model_dir, saved_model_tags, scale, tensorboard_logdir, tensorflow_custom_layer_libraries, tensorflow_custom_operations_config_update, tensorflow_object_detection_api_pipeline_config, tensorflow_use_custom_operations_config, transformations_config"/>
		</cli_parameters>
	</meta_data>
</net>
